…
            type='SinePositionalEncoding',
            num_feats=128,
            normalize=True,
            offset=-0.5),
        loss_decode=dict(
            type='CrossEntropyLoss', use_sigmoid=False, loss_weight=1.0)),
    train_cfg=dict(),
    test_cfg=dict(mode='whole'))
find_unused_parameters = True
work_dir = './work_dirs/ddp_fuse-vssm_b_4x4_256x256_160k_whu_cat_fuma-o_final'
gpu_ids = range(0, 2)
auto_resume = False

2024-06-04 11:01:18,569 - mmseg - INFO - Set random seed to 2024, deterministic: True
2024-06-04 11:01:26,691 - mmseg - INFO - DDP(
  (backbone): Fusion_VSSM(
    (patch_embed_A): Sequential(
      (0): Conv2d(4, 64, kernel_size=(3, 3), stride=(2, 2), padding=(1, 1))
      (1): Permute()
      (2): LayerNorm((64,), eps=1e-05, elementwise_affine=True)
      (3): Permute()
      (4): GELU(approximate='none')
      (5): Conv2d(64, 128, kernel_size=(3, 3), stride=(2, 2), padding=(1, 1))
      (6): Permute()
      (7): LayerNorm((128,), eps=1e-05, elementwise_affine=True)
    )
    (patch_embed_B): Sequential(
      (0): Conv2d(1, 64, kernel_size=(3, 3), stride=(2, 2), padding=(1, 1))
      (1): Permute()
      (2): LayerNorm((64,), eps=1e-05, elementwise_affine=True)
      (3): Permute()
      (4): GELU(approximate='none')
      (5): Conv2d(64, 128, kernel_size=(3, 3), stride=(2, 2), padding=(1, 1))
      (6): Permute()
      (7): LayerNorm((128,), eps=1e-05, elementwise_affine=True)
    )
    (layers_a): ModuleList(
      (0): Sequential(
        (blocks): Sequential(
          (0): VSSBlock(
            (norm): LayerNorm((128,), eps=1e-05, elementwise_affine=True)
            (op): SS2D(
              (out_norm): LayerNorm((256,), eps=1e-05, elementwise_affine=True)
              (in_proj): Linear(in_features=128, out_features=256, bias=False)
              (act): SiLU()
              (conv2d): Conv2d(256, 256, kernel_size=(3, 3), stride=(1, 1), padding=(1, 1), groups=256, bias=False)
              (out_act): Identity()
              (out_proj): Linear(in_features=256, out_features=128, bias=False)
              (dropout): Identity()
            )
            (drop_path): timm.DropPath(0.0)
            (norm2): LayerNorm((128,), eps=1e-05, elementwise_affine=True)
            (mlp): Mlp(
              (fc1): Linear(in_features=128, out_features=512, bias=True)
              (act): GELU(approximate='none')
              (fc2): Linear(in_features=512, out_features=128, bias=True)
              (drop): Dropout(p=0.0, inplace=False)
            )
          )
          (1): VSSBlock(
            (norm): LayerNorm((128,), eps=1e-05, elementwise_affine=True)
            (op): SS2D(
              (out_norm): LayerNorm((256,), eps=1e-05, elementwise_affine=True)
              (in_proj): Linear(in_features=128, out_features=256, bias=False)
              (act): SiLU()
              (conv2d): Conv2d(256, 256, kernel_size=(3, 3), stride=(1, 1), padding=(1, 1), groups=256, bias=False)
              (out_act): Identity()
              (out_proj): Linear(in_features=256, out_features=128, bias=False)
              (dropout): Identity()
            )
            (drop_path): timm.DropPath(0.030000001192092896)
            (norm2): LayerNorm((128,), eps=1e-05, elementwise_affine=True)
            (mlp): Mlp(
              (fc1): Linear(in_features=128, out_features=512, bias=True)
              (act): GELU(approximate='none')
              (fc2): Linear(in_features=512, out_features=128, bias=True)
              (drop): Dropout(p=0.0, inplace=False)
            )
          )
        )
        (downsample): Sequential(
          (0): Permute()
          (1): Conv2d(128, 256, kernel_size=(3, 3), stride=(2, 2), padding=(1, 1))
          (2): Permute()
          (3): LayerNorm((256,), eps=1e-05, elementwise_affine=True)
        )
      )
      (1): Sequential(
        (blocks): Sequential(
          (0): VSSBlock(
            (norm): LayerNorm((256,), eps=1e-05, elementwise_affine=True)
            (op): SS2D(
              (out_norm): LayerNorm((512,), eps=1e-05, elementwise_affine=True)
              (in_proj): Linear(in_features=256, out_features=512, bias=False)
              (act): SiLU()
              (conv2d): Conv2d(512, 512, kernel_size=(3, 3), stride=(1, 1), padding=(1, 1), groups=512, bias=False)
              (out_act): Identity()
              (out_proj): Linear(in_features=512, out_features=256, bias=False)
              (dropout): Identity()
            )
            (drop_path): timm.DropPath(0.06000000238418579)
            (norm2): LayerNorm((256,), eps=1e-05, elementwise_affine=True)
            (mlp): Mlp(
              (fc1): Linear(in_features=256, out_features=1024, bias=True)
              (act): GELU(approximate='none')
              (fc2): Linear(in_features=1024, out_features=256, bias=True)
              (drop): Dropout(p=0.0, inplace=False)
            )
          )
          (1): VSSBlock(
            (norm): LayerNorm((256,), eps=1e-05, elementwise_affine=True)
            (op): SS2D(
              (out_norm): LayerNorm((512,), eps=1e-05, elementwise_affine=True)
              (in_proj): Linear(in_features=256, out_features=512, bias=False)
              (act): SiLU()
              (conv2d): Conv2d(512, 512, kernel_size=(3, 3), stride=(1, 1), padding=(1, 1), groups=512, bias=False)
              (out_act): Identity()
              (out_proj): Linear(in_features=512, out_features=256, bias=False)
              (dropout): Identity()
            )
            (drop_path): timm.DropPath(0.09000000357627869)
            (norm2): LayerNorm((256,), eps=1e-05, elementwise_affine=True)
            (mlp): Mlp(
              (fc1): Linear(in_features=256, out_features=1024, bias=True)
              (act): GELU(approximate='none')
              (fc2): Linear(in_features=1024, out_features=256, bias=True)
              (drop): Dropout(p=0.0, inplace=False)
            )
          )
        )
        (downsample): Sequential(
          (0): Permute()
          (1): Conv2d(256, 512, kernel_size=(3, 3), stride=(2, 2), padding=(1, 1))
          (2): Permute()
          (3): LayerNorm((512,), eps=1e-05, elementwise_affine=True)
        )
      )
      (2): Sequential(
        (blocks): Sequential(
          (0): VSSBlock(
            (norm): LayerNorm((512,), eps=1e-05, elementwise_affine=True)
            (op): SS2D(
              (out_norm): LayerNorm((1024,), eps=1e-05, elementwise_affine=True)
              (in_proj): Linear(in_features=512, out_features=1024, bias=False)
              (act): SiLU()
              (conv2d): Conv2d(1024, 1024, kernel_size=(3, 3), stride=(1, 1), padding=(1, 1), groups=1024, bias=False)
              (out_act): Identity()
              (out_proj): Linear(in_features=1024, out_features=512, bias=False)
              (dropout): Identity()
            )
            (drop_path): timm.DropPath(0.12000000476837158)
            (norm2): LayerNorm((512,), eps=1e-05, elementwise_affine=True)
            (mlp): Mlp(
              (fc1): Linear(in_features=512, out_features=2048, bias=True)
              (act): GELU(approximate='none')
              (fc2): Linear(in_features=2048, out_features=512, bias=True)
              (drop): Dropout(p=0.0, inplace=False)
            )
          )
          (1): VSSBlock(
            (norm): LayerNorm((512,), eps=1e-05, elementwise_affine=True)
            (op): SS2D(
              (out_norm): LayerNorm((1024,), eps=1e-05, elementwise_affine=True)
              (in_proj): Linear(in_features=512, out_features=1024, bias=False)
              (act): SiLU()
              (conv2d): Conv2d(1024, 1024, kernel_size=(3, 3), stride=(1, 1), padding=(1, 1), groups=1024, bias=False)
              (out_act): Identity()
              (out_proj): Linear(in_features=1024, out_features=512, bias=False)
              (dropout): Identity()
            )
            (drop_path): timm.DropPath(0.15000000596046448)
            (norm2): LayerNorm((512,), eps=1e-05, elementwise_affine=True)
            (mlp): Mlp(
              (fc1): Linear(in_features=512, out_features=2048, bias=True)
              (act): GELU(approximate='none')
              (fc2): Linear(in_features=2048, out_features=512, bias=True)
              (drop): Dropout(p=0.0, inplace=False)
            )
          )
          (2): VSSBlock(
            (norm): LayerNorm((512,), eps=1e-05, elementwise_affine=True)
            (op): SS2D(
              (out_norm): LayerNorm((1024,), eps=1e-05, elementwise_affine=True)
              (in_proj): Linear(in_features=512, out_features=1024, bias=False)
              (act): SiLU()
              (conv2d): Conv2d(1024, 1024, kernel_size=(3, 3), stride=(1, 1), padding=(1, 1), groups=1024, bias=False)
              (out_act): Identity()
              (out_proj): Linear(in_features=1024, out_features=512, bias=False)
              (dropout): Identity()
            )
            (drop_path): timm.DropPath(0.18000000715255737)
            (norm2): LayerNorm((512,), eps=1e-05, elementwise_affine=True)
            (mlp): Mlp(
              (fc1): Linear(in_features=512, out_features=2048, bias=True)
              (act): GELU(approximate='none')
              (fc2): Linear(in_features=2048, out_features=512, bias=True)
              (drop): Dropout(p=0.0, inplace=False)
            )
          )
          (3): VSSBlock(
            (norm): LayerNorm((512,), eps=1e-05, elementwise_affine=True)
            (op): SS2D(
              (out_norm): LayerNorm((1024,), eps=1e-05, elementwise_affine=True)
              (in_proj): Linear(in_features=512, out_features=1024, bias=False)
              (act): SiLU()
              (conv2d): Conv2d(1024, 1024, kernel_size=(3, 3), stride=(1, 1), padding=(1, 1), groups=1024, bias=False)
              (out_act): Identity()
              (out_proj): Linear(in_features=1024, out_features=512, bias=False)
              (dropout): Identity()
            )
            (drop_path): timm.DropPath(0.21000000834465027)
            (norm2): LayerNorm((512,), eps=1e-05, elementwise_affine=True)
            (mlp): Mlp(
              (fc1): Linear(in_features=512, out_features=2048, bias=True)
              (act): GELU(approximate='none')
              (fc2): Linear(in_features=2048, out_features=512, bias=True)
              (drop): Dropout(p=0.0, inplace=False)
            )
          )
          (4): VSSBlock(
            (norm): LayerNorm((512,), eps=1e-05, elementwise_affine=True)
            (op): SS2D(
              (out_norm): LayerNorm((1024,), eps=1e-05, elementwise_affine=True)
              (in_proj): Linear(in_features=512, out_features=1024, bias=False)
              (act): SiLU()
              (conv2d): Conv2d(1024, 1024, kernel_size=(3, 3), stride=(1, 1), padding=(1, 1), groups=1024, bias=False)
              (out_act): Identity()
              (out_proj): Linear(in_features=1024, out_features=512, bias=False)
              (dropout): Identity()
            )
            (drop_path): timm.DropPath(0.24000000953674316)
            (norm2): LayerNorm((512,), eps=1e-05, elementwise_affine=True)
            (mlp): Mlp(
              (fc1): Linear(in_features=512, out_features=2048, bias=True)
              (act): GELU(approximate='none')
              (fc2): Linear(in_features=2048, out_features=512, bias=True)
              (drop): Dropout(p=0.0, inplace=False)
            )
          )
          (5): VSSBlock(
            (norm): LayerNorm((512,), eps=1e-05, elementwise_affine=True)
            (op): SS2D(
              (out_norm): LayerNorm((1024,), eps=1e-05, elementwise_affine=True)
              (in_proj): Linear(in_features=512, out_features=1024, bias=False)
              (act): SiLU()
              (conv2d): Conv2d(1024, 1024, kernel_size=(3, 3), stride=(1, 1), padding=(1, 1), groups=1024, bias=False)
              (out_act): Identity()
              (out_proj): Linear(in_features=1024, out_features=512, bias=False)
              (dropout): Identity()
            )
            (drop_path): timm.DropPath(0.27000001072883606)
            (norm2): LayerNorm((512,), eps=1e-05, elementwise_affine=True)
            (mlp): Mlp(
              (fc1): Linear(in_features=512, out_features=2048, bias=True)
              (act): GELU(approximate='none')
              (fc2): Linear(in_features=2048, out_features=512, bias=True)
              (drop): Dropout(p=0.0, inplace=False)
            )
          )
          (6): VSSBlock(
            (norm): LayerNorm((512,), eps=1e-05, elementwise_affine=True)
            (op): SS2D(
              (out_norm): LayerNorm((1024,), eps=1e-05, elementwise_affine=True)
              (in_proj): Linear(in_features=512, out_features=1024, bias=False)
              (act): SiLU()
              (conv2d): Conv2d(1024, 1024, kernel_size=(3, 3), stride=(1, 1), padding=(1, 1), groups=1024, bias=False)
              (out_act): Identity()
              (out_proj): Linear(in_features=1024, out_features=512, bias=False)
              (dropout): Identity()
            )
            (drop_path): timm.DropPath(0.30000001192092896)
            (norm2): LayerNorm((512,), eps=1e-05, elementwise_affine=True)
            (mlp): Mlp(
              (fc1): Linear(in_features=512, out_features=2048, bias=True)
              (act): GELU(approximate='none')
              (fc2): Linear(in_features=2048, out_features=512, bias=True)
              (drop): Dropout(p=0.0, inplace=False)
            )
          )
          (7): VSSBlock(
            (norm): LayerNorm((512,), eps=1e-05, elementwise_affine=True)
            (op): SS2D(
              (out_norm): LayerNorm((1024,), eps=1e-05, elementwise_affine=True)
              (in_proj): Linear(in_features=512, out_features=1024, bias=False)
              (act): SiLU()
              (conv2d): Conv2d(1024, 1024, kernel_size=(3, 3), stride=(1, 1), padding=(1, 1), groups=1024, bias=False)
              (out_act): Identity()
              (out_proj): Linear(in_features=1024, out_features=512, bias=False)
              (dropout): Identity()
            )
            (drop_path): timm.DropPath(0.33000001311302185)
            (norm2): LayerNorm((512,), eps=1e-05, elementwise_affine=True)
            (mlp): Mlp(
              (fc1): Linear(in_features=512, out_features=2048, bias=True)
              (act): GELU(approximate='none')
              (fc2): Linear(in_features=2048, out_features=512, bias=True)
              (drop): Dropout(p=0.0, inplace=False)
            )
          )
          (8): VSSBlock(
            (norm): LayerNorm((512,), eps=1e-05, elementwise_affine=True)
            (op): SS2D(
              (out_norm): LayerNorm((1024,), eps=1e-05, elementwise_affine=True)
              (in_proj): Linear(in_features=512, out_features=1024, bias=False)
              (act): SiLU()
              (conv2d): Conv2d(1024, 1024, kernel_size=(3, 3), stride=(1, 1), padding=(1, 1), groups=1024, bias=False)
              (out_act): Identity()
              (out_proj): Linear(in_features=1024, out_features=512, bias=False)
              (dropout): Identity()
            )
            (drop_path): timm.DropPath(0.36000001430511475)
            (norm2): LayerNorm((512,), eps=1e-05, elementwise_affine=True)
            (mlp): Mlp(
              (fc1): Linear(in_features=512, out_features=2048, bias=True)
              (act): GELU(approximate='none')
              (fc2): Linear(in_features=2048, out_features=512, bias=True)
              (drop): Dropout(p=0.0, inplace=False)
            )
          )
          (9): VSSBlock(
            (norm): LayerNorm((512,), eps=1e-05, elementwise_affine=True)
            (op): SS2D(
              (out_norm): LayerNorm((1024,), eps=1e-05, elementwise_affine=True)
              (in_proj): Linear(in_features=512, out_features=1024, bias=False)
              (act): SiLU()
              (conv2d): Conv2d(1024, 1024, kernel_size=(3, 3), stride=(1, 1), padding=(1, 1), groups=1024, bias=False)
              (out_act): Identity()
              (out_proj): Linear(in_features=1024, out_features=512, bias=False)
              (dropout): Identity()
            )
            (drop_path): timm.DropPath(0.39000001549720764)
            (norm2): LayerNorm((512,), eps=1e-05, elementwise_affine=True)
            (mlp): Mlp(
              (fc1): Linear(in_features=512, out_features=2048, bias=True)
              (act): GELU(approximate='none')
              (fc2): Linear(in_features=2048, out_features=512, bias=True)
              (drop): Dropout(p=0.0, inplace=False)
            )
          )
          (10): VSSBlock(
            (norm): LayerNorm((512,), eps=1e-05, elementwise_affine=True)
            (op): SS2D(
              (out_norm): LayerNorm((1024,), eps=1e-05, elementwise_affine=True)
              (in_proj): Linear(in_features=512, out_features=1024, bias=False)
              (act): SiLU()
              (conv2d): Conv2d(1024, 1024, kernel_size=(3, 3), stride=(1, 1), padding=(1, 1), groups=1024, bias=False)
              (out_act): Identity()
              (out_proj): Linear(in_features=1024, out_features=512, bias=False)
              (dropout): Identity()
            )
            (drop_path): timm.DropPath(0.42000001668930054)
            (norm2): LayerNorm((512,), eps=1e-05, elementwise_affine=True)
            (mlp): Mlp(
              (fc1): Linear(in_features=512, out_features=2048, bias=True)
              (act): GELU(approximate='none')
              (fc2): Linear(in_features=2048, out_features=512, bias=True)
              (drop): Dropout(p=0.0, inplace=False)
            )
          )
          (11): VSSBlock(
            (norm): LayerNorm((512,), eps=1e-05, elementwise_affine=True)
            (op): SS2D(
              (out_norm): LayerNorm((1024,), eps=1e-05, elementwise_affine=True)
              (in_proj): Linear(in_features=512, out_features=1024, bias=False)
              (act): SiLU()
              (conv2d): Conv2d(1024, 1024, kernel_size=(3, 3), stride=(1, 1), padding=(1, 1), groups=1024, bias=False)
              (out_act): Identity()
              (out_proj): Linear(in_features=1024, out_features=512, bias=False)
              (dropout): Identity()
            )
            (drop_path): timm.DropPath(0.45000001788139343)
            (norm2): LayerNorm((512,), eps=1e-05, elementwise_affine=True)
            (mlp): Mlp(
              (fc1): Linear(in_features=512, out_features=2048, bias=True)
              (act): GELU(approximate='none')
              (fc2): Linear(in_features=2048, out_features=512, bias=True)
              (drop): Dropout(p=0.0, inplace=False)
            )
          )
          (12): VSSBlock(
            (norm): LayerNorm((512,), eps=1e-05, elementwise_affine=True)
            (op): SS2D(
              (out_norm): LayerNorm((1024,), eps=1e-05, elementwise_affine=True)
              (in_proj): Linear(in_features=512, out_features=1024, bias=False)
              (act): SiLU()
              (conv2d): Conv2d(1024, 1024, kernel_size=(3, 3), stride=(1, 1), padding=(1, 1), groups=1024, bias=False)
              (out_act): Identity()
              (out_proj): Linear(in_features=1024, out_features=512, bias=False)
              (dropout): Identity()
            )
            (drop_path): timm.DropPath(0.48000001907348633)
            (norm2): LayerNorm((512,), eps=1e-05, elementwise_affine=True)
            (mlp): Mlp(
              (fc1): Linear(in_features=512, out_features=2048, bias=True)
              (act): GELU(approximate='none')
              (fc2): Linear(in_features=2048, out_features=512, bias=True)
              (drop): Dropout(p=0.0, inplace=False)
            )
          )
          (13): VSSBlock(
            (norm): LayerNorm((512,), eps=1e-05, elementwise_affine=True)
            (op): SS2D(
              (out_norm): LayerNorm((1024,), eps=1e-05, elementwise_affine=True)
              (in_proj): Linear(in_features=512, out_features=1024, bias=False)
              (act): SiLU()
              (conv2d): Conv2d(1024, 1024, kernel_size=(3, 3), stride=(1, 1), padding=(1, 1), groups=1024, bias=False)
              (out_act): Identity()
              (out_proj): Linear(in_features=1024, out_features=512, bias=False)
              (dropout): Identity()
            )
            (drop_path): timm.DropPath(0.5099999904632568)
            (norm2): LayerNorm((512,), eps=1e-05, elementwise_affine=True)
            (mlp): Mlp(
              (fc1): Linear(in_features=512, out_features=2048, bias=True)
              (act): GELU(approximate='none')
              (fc2): Linear(in_features=2048, out_features=512, bias=True)
              (drop): Dropout(p=0.0, inplace=False)
            )
          )
          (14): VSSBlock(
            (norm): LayerNorm((512,), eps=1e-05, elementwise_affine=True)
            (op): SS2D(
              (out_norm): LayerNorm((1024,), eps=1e-05, elementwise_affine=True)
              (in_proj): Linear(in_features=512, out_features=1024, bias=False)
              (act): SiLU()
              (conv2d): Conv2d(1024, 1024, kernel_size=(3, 3), stride=(1, 1), padding=(1, 1), groups=1024, bias=False)
              (out_act): Identity()
              (out_proj): Linear(in_features=1024, out_features=512, bias=False)
              (dropout): Identity()
            )
            (drop_path): timm.DropPath(0.5400000214576721)
            (norm2): LayerNorm((512,), eps=1e-05, elementwise_affine=True)
            (mlp): Mlp(
              (fc1): Linear(in_features=512, out_features=2048, bias=True)
              (act): GELU(approximate='none')
              (fc2): Linear(in_features=2048, out_features=512, bias=True)
              (drop): Dropout(p=0.0, inplace=False)
            )
          )
        )
        (downsample): Sequential(
          (0): Permute()
          (1): Conv2d(512, 1024, kernel_size=(3, 3), stride=(2, 2), padding=(1, 1))
          (2): Permute()
          (3): LayerNorm((1024,), eps=1e-05, elementwise_affine=True)
        )
      )
      (3): Sequential(
        (blocks): Sequential(
          (0): VSSBlock(
            (norm): LayerNorm((1024,), eps=1e-05, elementwise_affine=True)
            (op): SS2D(
              (out_norm): LayerNorm((2048,), eps=1e-05, elementwise_affine=True)
              (in_proj): Linear(in_features=1024, out_features=2048, bias=False)
              (act): SiLU()
              (conv2d): Conv2d(2048, 2048, kernel_size=(3, 3), stride=(1, 1), padding=(1, 1), groups=2048, bias=False)
              (out_act): Identity()
              (out_proj): Linear(in_features=2048, out_features=1024, bias=False)
              (dropout): Identity()
            )
            (drop_path): timm.DropPath(0.5700000524520874)
            (norm2): LayerNorm((1024,), eps=1e-05, elementwise_affine=True)
            (mlp): Mlp(
              (fc1): Linear(in_features=1024, out_features=4096, bias=True)
              (act): GELU(approximate='none')
              (fc2): Linear(in_features=4096, out_features=1024, bias=True)
              (drop): Dropout(p=0.0, inplace=False)
            )
          )
          (1): VSSBlock(
            (norm): LayerNorm((1024,), eps=1e-05, elementwise_affine=True)
            (op): SS2D(
              (out_norm): LayerNorm((2048,), eps=1e-05, elementwise_affine=True)
              (in_proj): Linear(in_features=1024, out_features=2048, bias=False)
              (act): SiLU()
              (conv2d): Conv2d(2048, 2048, kernel_size=(3, 3), stride=(1, 1), padding=(1, 1), groups=2048, bias=False)
              (out_act): Identity()
              (out_proj): Linear(in_features=2048, out_features=1024, bias=False)
              (dropout): Identity()
            )
            (drop_path): timm.DropPath(0.6000000238418579)
            (norm2): LayerNorm((1024,), eps=1e-05, elementwise_affine=True)
            (mlp): Mlp(
              (fc1): Linear(in_features=1024, out_features=4096, bias=True)
              (act): GELU(approximate='none')
              (fc2): Linear(in_features=4096, out_features=1024, bias=True)
              (drop): Dropout(p=0.0, inplace=False)
            )
          )
        )
        (downsample): Identity()
      )
    )
    (layers_b): ModuleList(
      (0): Sequential(
        (blocks): Sequential(
          (0): VSSBlock(
            (norm): LayerNorm((128,), eps=1e-05, elementwise_affine=True)
            (op): SS2D(
              (out_norm): LayerNorm((256,), eps=1e-05, elementwise_affine=True)
              (in_proj): Linear(in_features=128, out_features=256, bias=False)
              (act): SiLU()
              (conv2d): Conv2d(256, 256, kernel_size=(3, 3), stride=(1, 1), padding=(1, 1), groups=256, bias=False)
              (out_act): Identity()
              (out_proj): Linear(in_features=256, out_features=128, bias=False)
              (dropout): Identity()
            )
            (drop_path): timm.DropPath(0.0)
            (norm2): LayerNorm((128,), eps=1e-05, elementwise_affine=True)
            (mlp): Mlp(
              (fc1): Linear(in_features=128, out_features=512, bias=True)
              (act): GELU(approximate='none')
              (fc2): Linear(in_features=512, out_features=128, bias=True)
              (drop): Dropout(p=0.0, inplace=False)
            )
          )
          (1): VSSBlock(
            (norm): LayerNorm((128,), eps=1e-05, elementwise_affine=True)
            (op): SS2D(
              (out_norm): LayerNorm((256,), eps=1e-05, elementwise_affine=True)
              (in_proj): Linear(in_features=128, out_features=256, bias=False)
              (act): SiLU()
              (conv2d): Conv2d(256, 256, kernel_size=(3, 3), stride=(1, 1), padding=(1, 1), groups=256, bias=False)
              (out_act): Identity()
              (out_proj): Linear(in_features=256, out_features=128, bias=False)
              (dropout): Identity()
            )
            (drop_path): timm.DropPath(0.030000001192092896)
            (norm2): LayerNorm((128,), eps=1e-05, elementwise_affine=True)
            (mlp): Mlp(
              (fc1): Linear(in_features=128, out_features=512, bias=True)
              (act): GELU(approximate='none')
              (fc2): Linear(in_features=512, out_features=128, bias=True)
              (drop): Dropout(p=0.0, inplace=False)
            )
          )
        )
        (downsample): Sequential(
          (0): Permute()
          (1): Conv2d(128, 256, kernel_size=(3, 3), stride=(2, 2), padding=(1, 1))
          (2): Permute()
          (3): LayerNorm((256,), eps=1e-05, elementwise_affine=True)
        )
      )
      (1): Sequential(
        (blocks): Sequential(
          (0): VSSBlock(
            (norm): LayerNorm((256,), eps=1e-05, elementwise_affine=True)
            (op): SS2D(
              (out_norm): LayerNorm((512,), eps=1e-05, elementwise_affine=True)
              (in_proj): Linear(in_features=256, out_features=512, bias=False)
              (act): SiLU()
              (conv2d): Conv2d(512, 512, kernel_size=(3, 3), stride=(1, 1), padding=(1, 1), groups=512, bias=False)
              (out_act): Identity()
              (out_proj): Linear(in_features=512, out_features=256, bias=False)
              (dropout): Identity()
            )
            (drop_path): timm.DropPath(0.06000000238418579)
            (norm2): LayerNorm((256,), eps=1e-05, elementwise_affine=True)
            (mlp): Mlp(
              (fc1): Linear(in_features=256, out_features=1024, bias=True)
              (act): GELU(approximate='none')
              (fc2): Linear(in_features=1024, out_features=256, bias=True)
              (drop): Dropout(p=0.0, inplace=False)
            )
          )
          (1): VSSBlock(
            (norm): LayerNorm((256,), eps=1e-05, elementwise_affine=True)
            (op): SS2D(
              (out_norm): LayerNorm((512,), eps=1e-05, elementwise_affine=True)
              (in_proj): Linear(in_features=256, out_features=512, bias=False)
              (act): SiLU()
              (conv2d): Conv2d(512, 512, kernel_size=(3, 3), stride=(1, 1), padding=(1, 1), groups=512, bias=False)
              (out_act): Identity()
              (out_proj): Linear(in_features=512, out_features=256, bias=False)
              (dropout): Identity()
            )
            (drop_path): timm.DropPath(0.09000000357627869)
            (norm2): LayerNorm((256,), eps=1e-05, elementwise_affine=True)
            (mlp): Mlp(
              (fc1): Linear(in_features=256, out_features=1024, bias=True)
              (act): GELU(approximate='none')
              (fc2): Linear(in_features=1024, out_features=256, bias=True)
              (drop): Dropout(p=0.0, inplace=False)
            )
          )
        )
        (downsample): Sequential(
          (0): Permute()
          (1): Conv2d(256, 512, kernel_size=(3, 3), stride=(2, 2), padding=(1, 1))
          (2): Permute()
          (3): LayerNorm((512,), eps=1e-05, elementwise_affine=True)
        )
      )
      (2): Sequential(
        (blocks): Sequential(
          (0): VSSBlock(
            (norm): LayerNorm((512,), eps=1e-05, elementwise_affine=True)
            (op): SS2D(
              (out_norm): LayerNorm((1024,), eps=1e-05, elementwise_affine=True)
              (in_proj): Linear(in_features=512, out_features=1024, bias=False)
              (act): SiLU()
              (conv2d): Conv2d(1024, 1024, kernel_size=(3, 3), stride=(1, 1), padding=(1, 1), groups=1024, bias=False)
              (out_act): Identity()
              (out_proj): Linear(in_features=1024, out_features=512, bias=False)
              (dropout): Identity()
            )
            (drop_path): timm.DropPath(0.12000000476837158)
            (norm2): LayerNorm((512,), eps=1e-05, elementwise_affine=True)
            (mlp): Mlp(
              (fc1): Linear(in_features=512, out_features=2048, bias=True)
              (act): GELU(approximate='none')
              (fc2): Linear(in_features=2048, out_features=512, bias=True)
              (drop): Dropout(p=0.0, inplace=False)
            )
          )
          (1): VSSBlock(
            (norm): LayerNorm((512,), eps=1e-05, elementwise_affine=True)
            (op): SS2D(
              (out_norm): LayerNorm((1024,), eps=1e-05, elementwise_affine=True)
              (in_proj): Linear(in_features=512, out_features=1024, bias=False)
              (act): SiLU()
              (conv2d): Conv2d(1024, 1024, kernel_size=(3, 3), stride=(1, 1), padding=(1, 1), groups=1024, bias=False)
              (out_act): Identity()
              (out_proj): Linear(in_features=1024, out_features=512, bias=False)
              (dropout): Identity()
            )
            (drop_path): timm.DropPath(0.15000000596046448)
            (norm2): LayerNorm((512,), eps=1e-05, elementwise_affine=True)
            (mlp): Mlp(
              (fc1): Linear(in_features=512, out_features=2048, bias=True)
              (act): GELU(approximate='none')
              (fc2): Linear(in_features=2048, out_features=512, bias=True)
              (drop): Dropout(p=0.0, inplace=False)
            )
          )
          (2): VSSBlock(
            (norm): LayerNorm((512,), eps=1e-05, elementwise_affine=True)
            (op): SS2D(
              (out_norm): LayerNorm((1024,), eps=1e-05, elementwise_affine=True)
              (in_proj): Linear(in_features=512, out_features=1024, bias=False)
              (act): SiLU()
              (conv2d): Conv2d(1024, 1024, kernel_size=(3, 3), stride=(1, 1), padding=(1, 1), groups=1024, bias=False)
              (out_act): Identity()
              (out_proj): Linear(in_features=1024, out_features=512, bias=False)
              (dropout): Identity()
            )
            (drop_path): timm.DropPath(0.18000000715255737)
            (norm2): LayerNorm((512,), eps=1e-05, elementwise_affine=True)
            (mlp): Mlp(
              (fc1): Linear(in_features=512, out_features=2048, bias=True)
              (act): GELU(approximate='none')
              (fc2): Linear(in_features=2048, out_features=512, bias=True)
              (drop): Dropout(p=0.0, inplace=False)
            )
          )
          (3): VSSBlock(
            (norm): LayerNorm((512,), eps=1e-05, elementwise_affine=True)
            (op): SS2D(
              (out_norm): LayerNorm((1024,), eps=1e-05, elementwise_affine=True)
              (in_proj): Linear(in_features=512, out_features=1024, bias=False)
              (act): SiLU()
              (conv2d): Conv2d(1024, 1024, kernel_size=(3, 3), stride=(1, 1), padding=(1, 1), groups=1024, bias=False)
              (out_act): Identity()
              (out_proj): Linear(in_features=1024, out_features=512, bias=False)
              (dropout): Identity()
            )
            (drop_path): timm.DropPath(0.21000000834465027)
            (norm2): LayerNorm((512,), eps=1e-05, elementwise_affine=True)
            (mlp): Mlp(
              (fc1): Linear(in_features=512, out_features=2048, bias=True)
              (act): GELU(approximate='none')
              (fc2): Linear(in_features=2048, out_features=512, bias=True)
              (drop): Dropout(p=0.0, inplace=False)
            )
          )
          (4): VSSBlock(
            (norm): LayerNorm((512,), eps=1e-05, elementwise_affine=True)
            (op): SS2D(
              (out_norm): LayerNorm((1024,), eps=1e-05, elementwise_affine=True)
              (in_proj): Linear(in_features=512, out_features=1024, bias=False)
              (act): SiLU()
              (conv2d): Conv2d(1024, 1024, kernel_size=(3, 3), stride=(1, 1), padding=(1, 1), groups=1024, bias=False)
              (out_act): Identity()
              (out_proj): Linear(in_features=1024, out_features=512, bias=False)
              (dropout): Identity()
            )
            (drop_path): timm.DropPath(0.24000000953674316)
            (norm2): LayerNorm((512,), eps=1e-05, elementwise_affine=True)
            (mlp): Mlp(
              (fc1): Linear(in_features=512, out_features=2048, bias=True)
              (act): GELU(approximate='none')
              (fc2): Linear(in_features=2048, out_features=512, bias=True)
              (drop): Dropout(p=0.0, inplace=False)
            )
          )
          (5): VSSBlock(
            (norm): LayerNorm((512,), eps=1e-05, elementwise_affine=True)
            (op): SS2D(
              (out_norm): LayerNorm((1024,), eps=1e-05, elementwise_affine=True)
              (in_proj): Linear(in_features=512, out_features=1024, bias=False)
              (act): SiLU()
              (conv2d): Conv2d(1024, 1024, kernel_size=(3, 3), stride=(1, 1), padding=(1, 1), groups=1024, bias=False)
              (out_act): Identity()
              (out_proj): Linear(in_features=1024, out_features=512, bias=False)
              (dropout): Identity()
            )
            (drop_path): timm.DropPath(0.27000001072883606)
            (norm2): LayerNorm((512,), eps=1e-05, elementwise_affine=True)
            (mlp): Mlp(
              (fc1): Linear(in_features=512, out_features=2048, bias=True)
              (act): GELU(approximate='none')
              (fc2): Linear(in_features=2048, out_features=512, bias=True)
              (drop): Dropout(p=0.0, inplace=False)
            )
          )
          (6): VSSBlock(
            (norm): LayerNorm((512,), eps=1e-05, elementwise_affine=True)
            (op): SS2D(
              (out_norm): LayerNorm((1024,), eps=1e-05, elementwise_affine=True)
              (in_proj): Linear(in_features=512, out_features=1024, bias=False)
              (act): SiLU()
              (conv2d): Conv2d(1024, 1024, kernel_size=(3, 3), stride=(1, 1), padding=(1, 1), groups=1024, bias=False)
              (out_act): Identity()
              (out_proj): Linear(in_features=1024, out_features=512, bias=False)
              (dropout): Identity()
            )
            (drop_path): timm.DropPath(0.30000001192092896)
            (norm2): LayerNorm((512,), eps=1e-05, elementwise_affine=True)
            (mlp): Mlp(
              (fc1): Linear(in_features=512, out_features=2048, bias=True)
              (act): GELU(approximate='none')
              (fc2): Linear(in_features=2048, out_features=512, bias=True)
              (drop): Dropout(p=0.0, inplace=False)
            )
          )
          (7): VSSBlock(
            (norm): LayerNorm((512,), eps=1e-05, elementwise_affine=True)
            (op): SS2D(
              (out_norm): LayerNorm((1024,), eps=1e-05, elementwise_affine=True)
              (in_proj): Linear(in_features=512, out_features=1024, bias=False)
              (act): SiLU()
              (conv2d): Conv2d(1024, 1024, kernel_size=(3, 3), stride=(1, 1), padding=(1, 1), groups=1024, bias=False)
              (out_act): Identity()
              (out_proj): Linear(in_features=1024, out_features=512, bias=False)
              (dropout): Identity()
            )
            (drop_path): timm.DropPath(0.33000001311302185)
            (norm2): LayerNorm((512,), eps=1e-05, elementwise_affine=True)
            (mlp): Mlp(
              (fc1): Linear(in_features=512, out_features=2048, bias=True)
              (act): GELU(approximate='none')
              (fc2): Linear(in_features=2048, out_features=512, bias=True)
              (drop): Dropout(p=0.0, inplace=False)
            )
          )
          (8): VSSBlock(
            (norm): LayerNorm((512,), eps=1e-05, elementwise_affine=True)
            (op): SS2D(
              (out_norm): LayerNorm((1024,), eps=1e-05, elementwise_affine=True)
              (in_proj): Linear(in_features=512, out_features=1024, bias=False)
              (act): SiLU()
              (conv2d): Conv2d(1024, 1024, kernel_size=(3, 3), stride=(1, 1), padding=(1, 1), groups=1024, bias=False)
              (out_act): Identity()
              (out_proj): Linear(in_features=1024, out_features=512, bias=False)
              (dropout): Identity()
            )
            (drop_path): timm.DropPath(0.36000001430511475)
            (norm2): LayerNorm((512,), eps=1e-05, elementwise_affine=True)
            (mlp): Mlp(
              (fc1): Linear(in_features=512, out_features=2048, bias=True)
              (act): GELU(approximate='none')
              (fc2): Linear(in_features=2048, out_features=512, bias=True)
              (drop): Dropout(p=0.0, inplace=False)
            )
          )
          (9): VSSBlock(
            (norm): LayerNorm((512,), eps=1e-05, elementwise_affine=True)
            (op): SS2D(
              (out_norm): LayerNorm((1024,), eps=1e-05, elementwise_affine=True)
              (in_proj): Linear(in_features=512, out_features=1024, bias=False)
              (act): SiLU()
              (conv2d): Conv2d(1024, 1024, kernel_size=(3, 3), stride=(1, 1), padding=(1, 1), groups=1024, bias=False)
              (out_act): Identity()
              (out_proj): Linear(in_features=1024, out_features=512, bias=False)
              (dropout): Identity()
            )
            (drop_path): timm.DropPath(0.39000001549720764)
            (norm2): LayerNorm((512,), eps=1e-05, elementwise_affine=True)
            (mlp): Mlp(
              (fc1): Linear(in_features=512, out_features=2048, bias=True)
              (act): GELU(approximate='none')
              (fc2): Linear(in_features=2048, out_features=512, bias=True)
              (drop): Dropout(p=0.0, inplace=False)
            )
          )
          (10): VSSBlock(
            (norm): LayerNorm((512,), eps=1e-05, elementwise_affine=True)
            (op): SS2D(
              (out_norm): LayerNorm((1024,), eps=1e-05, elementwise_affine=True)
              (in_proj): Linear(in_features=512, out_features=1024, bias=False)
              (act): SiLU()
              (conv2d): Conv2d(1024, 1024, kernel_size=(3, 3), stride=(1, 1), padding=(1, 1), groups=1024, bias=False)
              (out_act): Identity()
              (out_proj): Linear(in_features=1024, out_features=512, bias=False)
              (dropout): Identity()
            )
            (drop_path): timm.DropPath(0.42000001668930054)
            (norm2): LayerNorm((512,), eps=1e-05, elementwise_affine=True)
            (mlp): Mlp(
              (fc1): Linear(in_features=512, out_features=2048, bias=True)
              (act): GELU(approximate='none')
              (fc2): Linear(in_features=2048, out_features=512, bias=True)
              (drop): Dropout(p=0.0, inplace=False)
            )
          )
          (11): VSSBlock(
            (norm): LayerNorm((512,), eps=1e-05, elementwise_affine=True)
            (op): SS2D(
              (out_norm): LayerNorm((1024,), eps=1e-05, elementwise_affine=True)
              (in_proj): Linear(in_features=512, out_features=1024, bias=False)
              (act): SiLU()
              (conv2d): Conv2d(1024, 1024, kernel_size=(3, 3), stride=(1, 1), padding=(1, 1), groups=1024, bias=False)
              (out_act): Identity()
              (out_proj): Linear(in_features=1024, out_features=512, bias=False)
              (dropout): Identity()
            )
            (drop_path): timm.DropPath(0.45000001788139343)
            (norm2): LayerNorm((512,), eps=1e-05, elementwise_affine=True)
            (mlp): Mlp(
              (fc1): Linear(in_features=512, out_features=2048, bias=True)
              (act): GELU(approximate='none')
              (fc2): Linear(in_features=2048, out_features=512, bias=True)
              (drop): Dropout(p=0.0, inplace=False)
            )
          )
          (12): VSSBlock(
            (norm): LayerNorm((512,), eps=1e-05, elementwise_affine=True)
            (op): SS2D(
              (out_norm): LayerNorm((1024,), eps=1e-05, elementwise_affine=True)
              (in_proj): Linear(in_features=512, out_features=1024, bias=False)
              (act): SiLU()
              (conv2d): Conv2d(1024, 1024, kernel_size=(3, 3), stride=(1, 1), padding=(1, 1), groups=1024, bias=False)
              (out_act): Identity()
              (out_proj): Linear(in_features=1024, out_features=512, bias=False)
              (dropout): Identity()
            )
            (drop_path): timm.DropPath(0.48000001907348633)
            (norm2): LayerNorm((512,), eps=1e-05, elementwise_affine=True)
            (mlp): Mlp(
              (fc1): Linear(in_features=512, out_features=2048, bias=True)
              (act): GELU(approximate='none')
              (fc2): Linear(in_features=2048, out_features=512, bias=True)
              (drop): Dropout(p=0.0, inplace=False)
            )
          )
          (13): VSSBlock(
            (norm): LayerNorm((512,), eps=1e-05, elementwise_affine=True)
            (op): SS2D(
              (out_norm): LayerNorm((1024,), eps=1e-05, elementwise_affine=True)
              (in_proj): Linear(in_features=512, out_features=1024, bias=False)
              (act): SiLU()
              (conv2d): Conv2d(1024, 1024, kernel_size=(3, 3), stride=(1, 1), padding=(1, 1), groups=1024, bias=False)
              (out_act): Identity()
              (out_proj): Linear(in_features=1024, out_features=512, bias=False)
              (dropout): Identity()
            )
            (drop_path): timm.DropPath(0.5099999904632568)
            (norm2): LayerNorm((512,), eps=1e-05, elementwise_affine=True)
            (mlp): Mlp(
              (fc1): Linear(in_features=512, out_features=2048, bias=True)
              (act): GELU(approximate='none')
              (fc2): Linear(in_features=2048, out_features=512, bias=True)
              (drop): Dropout(p=0.0, inplace=False)
            )
          )
          (14): VSSBlock(
            (norm): LayerNorm((512,), eps=1e-05, elementwise_affine=True)
            (op): SS2D(
              (out_norm): LayerNorm((1024,), eps=1e-05, elementwise_affine=True)
              (in_proj): Linear(in_features=512, out_features=1024, bias=False)
              (act): SiLU()
              (conv2d): Conv2d(1024, 1024, kernel_size=(3, 3), stride=(1, 1), padding=(1, 1), groups=1024, bias=False)
              (out_act): Identity()
              (out_proj): Linear(in_features=1024, out_features=512, bias=False)
              (dropout): Identity()
            )
            (drop_path): timm.DropPath(0.5400000214576721)
            (norm2): LayerNorm((512,), eps=1e-05, elementwise_affine=True)
            (mlp): Mlp(
              (fc1): Linear(in_features=512, out_features=2048, bias=True)
              (act): GELU(approximate='none')
              (fc2): Linear(in_features=2048, out_features=512, bias=True)
              (drop): Dropout(p=0.0, inplace=False)
            )
          )
        )
        (downsample): Sequential(
          (0): Permute()
          (1): Conv2d(512, 1024, kernel_size=(3, 3), stride=(2, 2), padding=(1, 1))
          (2): Permute()
          (3): LayerNorm((1024,), eps=1e-05, elementwise_affine=True)
        )
      )
      (3): Sequential(
        (blocks): Sequential(
          (0): VSSBlock(
            (norm): LayerNorm((1024,), eps=1e-05, elementwise_affine=True)
            (op): SS2D(
              (out_norm): LayerNorm((2048,), eps=1e-05, elementwise_affine=True)
              (in_proj): Linear(in_features=1024, out_features=2048, bias=False)
              (act): SiLU()
              (conv2d): Conv2d(2048, 2048, kernel_size=(3, 3), stride=(1, 1), padding=(1, 1), groups=2048, bias=False)
              (out_act): Identity()
              (out_proj): Linear(in_features=2048, out_features=1024, bias=False)
              (dropout): Identity()
            )
            (drop_path): timm.DropPath(0.5700000524520874)
            (norm2): LayerNorm((1024,), eps=1e-05, elementwise_affine=True)
            (mlp): Mlp(
              (fc1): Linear(in_features=1024, out_features=4096, bias=True)
              (act): GELU(approximate='none')
              (fc2): Linear(in_features=4096, out_features=1024, bias=True)
              (drop): Dropout(p=0.0, inplace=False)
            )
          )
          (1): VSSBlock(
            (norm): LayerNorm((1024,), eps=1e-05, elementwise_affine=True)
            (op): SS2D(
              (out_norm): LayerNorm((2048,), eps=1e-05, elementwise_affine=True)
              (in_proj): Linear(in_features=1024, out_features=2048, bias=False)
              (act): SiLU()
              (conv2d): Conv2d(2048, 2048, kernel_size=(3, 3), stride=(1, 1), padding=(1, 1), groups=2048, bias=False)
              (out_act): Identity()
              (out_proj): Linear(in_features=2048, out_features=1024, bias=False)
              (dropout): Identity()
            )
            (drop_path): timm.DropPath(0.6000000238418579)
            (norm2): LayerNorm((1024,), eps=1e-05, elementwise_affine=True)
            (mlp): Mlp(
              (fc1): Linear(in_features=1024, out_features=4096, bias=True)
              (act): GELU(approximate='none')
              (fc2): Linear(in_features=4096, out_features=1024, bias=True)
              (drop): Dropout(p=0.0, inplace=False)
            )
          )
        )
        (downsample): Identity()
      )
    )
    (fuse_layers): ModuleList(
      (0): Sequential(
        (blocks): Sequential(
          (0): FusionVSSBlock(
            (norm_A): LayerNorm((128,), eps=1e-05, elementwise_affine=True)
            (norm_B): LayerNorm((128,), eps=1e-05, elementwise_affine=True)
            (m_a): SS2D(
              (out_norm): LayerNorm((256,), eps=1e-05, elementwise_affine=True)
              (in_proj_a): Linear(in_features=128, out_features=256, bias=False)
              (in_proj_b): Linear(in_features=128, out_features=256, bias=False)
              (act): SiLU()
              (conv2d_a): Conv2d(256, 256, kernel_size=(3, 3), stride=(1, 1), padding=(1, 1), groups=256, bias=False)
              (conv2d_b): Conv2d(256, 256, kernel_size=(3, 3), stride=(1, 1), padding=(1, 1), groups=256, bias=False)
              (out_act_a): Identity()
              (out_act_b): Identity()
              (out_proj_a): Linear(in_features=256, out_features=128, bias=False)
              (out_proj_b): Linear(in_features=256, out_features=128, bias=False)
              (dropout): Identity()
            )
            (m_b): SS2D(
              (out_norm): LayerNorm((256,), eps=1e-05, elementwise_affine=True)
              (in_proj_a): Linear(in_features=128, out_features=256, bias=False)
              (in_proj_b): Linear(in_features=128, out_features=256, bias=False)
              (act): SiLU()
              (conv2d_a): Conv2d(256, 256, kernel_size=(3, 3), stride=(1, 1), padding=(1, 1), groups=256, bias=False)
              (conv2d_b): Conv2d(256, 256, kernel_size=(3, 3), stride=(1, 1), padding=(1, 1), groups=256, bias=False)
              (out_act_a): Identity()
              (out_act_b): Identity()
              (out_proj_a): Linear(in_features=256, out_features=128, bias=False)
              (out_proj_b): Linear(in_features=256, out_features=128, bias=False)
              (dropout): Identity()
            )
            (drop_path): timm.DropPath(0.0)
            (norm2_A): LayerNorm((128,), eps=1e-05, elementwise_affine=True)
            (norm2_B): LayerNorm((128,), eps=1e-05, elementwise_affine=True)
            (mlp_A): Mlp(
              (fc1): Linear(in_features=128, out_features=512, bias=True)
              (act): GELU(approximate='none')
              (fc2): Linear(in_features=512, out_features=128, bias=True)
              (drop): Dropout(p=0.0, inplace=False)
            )
            (mlp_B): Mlp(
              (fc1): Linear(in_features=128, out_features=512, bias=True)
              (act): GELU(approximate='none')
              (fc2): Linear(in_features=512, out_features=128, bias=True)
              (drop): Dropout(p=0.0, inplace=False)
            )
          )
          (1): FusionVSSBlock(
            (norm_A): LayerNorm((128,), eps=1e-05, elementwise_affine=True)
            (norm_B): LayerNorm((128,), eps=1e-05, elementwise_affine=True)
            (m_a): SS2D(
              (out_norm): LayerNorm((256,), eps=1e-05, elementwise_affine=True)
              (in_proj_a): Linear(in_features=128, out_features=256, bias=False)
              (in_proj_b): Linear(in_features=128, out_features=256, bias=False)
              (act): SiLU()
              (conv2d_a): Conv2d(256, 256, kernel_size=(3, 3), stride=(1, 1), padding=(1, 1), groups=256, bias=False)
              (conv2d_b): Conv2d(256, 256, kernel_size=(3, 3), stride=(1, 1), padding=(1, 1), groups=256, bias=False)
              (out_act_a): Identity()
              (out_act_b): Identity()
              (out_proj_a): Linear(in_features=256, out_features=128, bias=False)
              (out_proj_b): Linear(in_features=256, out_features=128, bias=False)
              (dropout): Identity()
            )
            (m_b): SS2D(
              (out_norm): LayerNorm((256,), eps=1e-05, elementwise_affine=True)
              (in_proj_a): Linear(in_features=128, out_features=256, bias=False)
              (in_proj_b): Linear(in_features=128, out_features=256, bias=False)
              (act): SiLU()
              (conv2d_a): Conv2d(256, 256, kernel_size=(3, 3), stride=(1, 1), padding=(1, 1), groups=256, bias=False)
              (conv2d_b): Conv2d(256, 256, kernel_size=(3, 3), stride=(1, 1), padding=(1, 1), groups=256, bias=False)
              (out_act_a): Identity()
              (out_act_b): Identity()
              (out_proj_a): Linear(in_features=256, out_features=128, bias=False)
              (out_proj_b): Linear(in_features=256, out_features=128, bias=False)
              (dropout): Identity()
            )
            (drop_path): timm.DropPath(0.030000001192092896)
            (norm2_A): LayerNorm((128,), eps=1e-05, elementwise_affine=True)
            (norm2_B): LayerNorm((128,), eps=1e-05, elementwise_affine=True)
            (mlp_A): Mlp(
              (fc1): Linear(in_features=128, out_features=512, bias=True)
              (act): GELU(approximate='none')
              (fc2): Linear(in_features=512, out_features=128, bias=True)
              (drop): Dropout(p=0.0, inplace=False)
            )
            (mlp_B): Mlp(
              (fc1): Linear(in_features=128, out_features=512, bias=True)
              (act): GELU(approximate='none')
              (fc2): Linear(in_features=512, out_features=128, bias=True)
              (drop): Dropout(p=0.0, inplace=False)
            )
          )
        )
      )
      (1): Sequential(
        (blocks): Sequential(
          (0): FusionVSSBlock(
            (norm_A): LayerNorm((256,), eps=1e-05, elementwise_affine=True)
            (norm_B): LayerNorm((256,), eps=1e-05, elementwise_affine=True)
            (m_a): SS2D(
              (out_norm): LayerNorm((512,), eps=1e-05, elementwise_affine=True)
              (in_proj_a): Linear(in_features=256, out_features=512, bias=False)
              (in_proj_b): Linear(in_features=256, out_features=512, bias=False)
              (act): SiLU()
              (conv2d_a): Conv2d(512, 512, kernel_size=(3, 3), stride=(1, 1), padding=(1, 1), groups=512, bias=False)
              (conv2d_b): Conv2d(512, 512, kernel_size=(3, 3), stride=(1, 1), padding=(1, 1), groups=512, bias=False)
              (out_act_a): Identity()
              (out_act_b): Identity()
              (out_proj_a): Linear(in_features=512, out_features=256, bias=False)
              (out_proj_b): Linear(in_features=512, out_features=256, bias=False)
              (dropout): Identity()
            )
            (m_b): SS2D(
              (out_norm): LayerNorm((512,), eps=1e-05, elementwise_affine=True)
              (in_proj_a): Linear(in_features=256, out_features=512, bias=False)
              (in_proj_b): Linear(in_features=256, out_features=512, bias=False)
              (act): SiLU()
              (conv2d_a): Conv2d(512, 512, kernel_size=(3, 3), stride=(1, 1), padding=(1, 1), groups=512, bias=False)
              (conv2d_b): Conv2d(512, 512, kernel_size=(3, 3), stride=(1, 1), padding=(1, 1), groups=512, bias=False)
              (out_act_a): Identity()
              (out_act_b): Identity()
              (out_proj_a): Linear(in_features=512, out_features=256, bias=False)
              (out_proj_b): Linear(in_features=512, out_features=256, bias=False)
              (dropout): Identity()
            )
            (drop_path): timm.DropPath(0.06000000238418579)
            (norm2_A): LayerNorm((256,), eps=1e-05, elementwise_affine=True)
            (norm2_B): LayerNorm((256,), eps=1e-05, elementwise_affine=True)
            (mlp_A): Mlp(
              (fc1): Linear(in_features=256, out_features=1024, bias=True)
              (act): GELU(approximate='none')
              (fc2): Linear(in_features=1024, out_features=256, bias=True)
              (drop): Dropout(p=0.0, inplace=False)
            )
            (mlp_B): Mlp(
              (fc1): Linear(in_features=256, out_features=1024, bias=True)
              (act): GELU(approximate='none')
              (fc2): Linear(in_features=1024, out_features=256, bias=True)
              (drop): Dropout(p=0.0, inplace=False)
            )
          )
          (1): FusionVSSBlock(
            (norm_A): LayerNorm((256,), eps=1e-05, elementwise_affine=True)
            (norm_B): LayerNorm((256,), eps=1e-05, elementwise_affine=True)
            (m_a): SS2D(
              (out_norm): LayerNorm((512,), eps=1e-05, elementwise_affine=True)
              (in_proj_a): Linear(in_features=256, out_features=512, bias=False)
              (in_proj_b): Linear(in_features=256, out_features=512, bias=False)
              (act): SiLU()
              (conv2d_a): Conv2d(512, 512, kernel_size=(3, 3), stride=(1, 1), padding=(1, 1), groups=512, bias=False)
              (conv2d_b): Conv2d(512, 512, kernel_size=(3, 3), stride=(1, 1), padding=(1, 1), groups=512, bias=False)
              (out_act_a): Identity()
              (out_act_b): Identity()
              (out_proj_a): Linear(in_features=512, out_features=256, bias=False)
              (out_proj_b): Linear(in_features=512, out_features=256, bias=False)
              (dropout): Identity()
            )
            (m_b): SS2D(
              (out_norm): LayerNorm((512,), eps=1e-05, elementwise_affine=True)
              (in_proj_a): Linear(in_features=256, out_features=512, bias=False)
              (in_proj_b): Linear(in_features=256, out_features=512, bias=False)
              (act): SiLU()
              (conv2d_a): Conv2d(512, 512, kernel_size=(3, 3), stride=(1, 1), padding=(1, 1), groups=512, bias=False)
              (conv2d_b): Conv2d(512, 512, kernel_size=(3, 3), stride=(1, 1), padding=(1, 1), groups=512, bias=False)
              (out_act_a): Identity()
              (out_act_b): Identity()
              (out_proj_a): Linear(in_features=512, out_features=256, bias=False)
              (out_proj_b): Linear(in_features=512, out_features=256, bias=False)
              (dropout): Identity()
            )
            (drop_path): timm.DropPath(0.09000000357627869)
            (norm2_A): LayerNorm((256,), eps=1e-05, elementwise_affine=True)
            (norm2_B): LayerNorm((256,), eps=1e-05, elementwise_affine=True)
            (mlp_A): Mlp(
              (fc1): Linear(in_features=256, out_features=1024, bias=True)
              (act): GELU(approximate='none')
              (fc2): Linear(in_features=1024, out_features=256, bias=True)
              (drop): Dropout(p=0.0, inplace=False)
            )
            (mlp_B): Mlp(
              (fc1): Linear(in_features=256, out_features=1024, bias=True)
              (act): GELU(approximate='none')
              (fc2): Linear(in_features=1024, out_features=256, bias=True)
              (drop): Dropout(p=0.0, inplace=False)
            )
          )
        )
      )
      (2): Sequential(
        (blocks): Sequential(
          (0): FusionVSSBlock(
            (norm_A): LayerNorm((512,), eps=1e-05, elementwise_affine=True)
            (norm_B): LayerNorm((512,), eps=1e-05, elementwise_affine=True)
            (m_a): SS2D(
              (out_norm): LayerNorm((1024,), eps=1e-05, elementwise_affine=True)
              (in_proj_a): Linear(in_features=512, out_features=1024, bias=False)
              (in_proj_b): Linear(in_features=512, out_features=1024, bias=False)
              (act): SiLU()
              (conv2d_a): Conv2d(1024, 1024, kernel_size=(3, 3), stride=(1, 1), padding=(1, 1), groups=1024, bias=False)
              (conv2d_b): Conv2d(1024, 1024, kernel_size=(3, 3), stride=(1, 1), padding=(1, 1), groups=1024, bias=False)
              (out_act_a): Identity()
              (out_act_b): Identity()
              (out_proj_a): Linear(in_features=1024, out_features=512, bias=False)
              (out_proj_b): Linear(in_features=1024, out_features=512, bias=False)
              (dropout): Identity()
            )
            (m_b): SS2D(
              (out_norm): LayerNorm((1024,), eps=1e-05, elementwise_affine=True)
              (in_proj_a): Linear(in_features=512, out_features=1024, bias=False)
              (in_proj_b): Linear(in_features=512, out_features=1024, bias=False)
              (act): SiLU()
              (conv2d_a): Conv2d(1024, 1024, kernel_size=(3, 3), stride=(1, 1), padding=(1, 1), groups=1024, bias=False)
              (conv2d_b): Conv2d(1024, 1024, kernel_size=(3, 3), stride=(1, 1), padding=(1, 1), groups=1024, bias=False)
              (out_act_a): Identity()
              (out_act_b): Identity()
              (out_proj_a): Linear(in_features=1024, out_features=512, bias=False)
              (out_proj_b): Linear(in_features=1024, out_features=512, bias=False)
              (dropout): Identity()
            )
            (drop_path): timm.DropPath(0.12000000476837158)
            (norm2_A): LayerNorm((512,), eps=1e-05, elementwise_affine=True)
            (norm2_B): LayerNorm((512,), eps=1e-05, elementwise_affine=True)
            (mlp_A): Mlp(
              (fc1): Linear(in_features=512, out_features=2048, bias=True)
              (act): GELU(approximate='none')
              (fc2): Linear(in_features=2048, out_features=512, bias=True)
              (drop): Dropout(p=0.0, inplace=False)
            )
            (mlp_B): Mlp(
              (fc1): Linear(in_features=512, out_features=2048, bias=True)
              (act): GELU(approximate='none')
              (fc2): Linear(in_features=2048, out_features=512, bias=True)
              (drop): Dropout(p=0.0, inplace=False)
            )
          )
          (1): FusionVSSBlock(
            (norm_A): LayerNorm((512,), eps=1e-05, elementwise_affine=True)
            (norm_B): LayerNorm((512,), eps=1e-05, elementwise_affine=True)
            (m_a): SS2D(
              (out_norm): LayerNorm((1024,), eps=1e-05, elementwise_affine=True)
              (in_proj_a): Linear(in_features=512, out_features=1024, bias=False)
              (in_proj_b): Linear(in_features=512, out_features=1024, bias=False)
              (act): SiLU()
              (conv2d_a): Conv2d(1024, 1024, kernel_size=(3, 3), stride=(1, 1), padding=(1, 1), groups=1024, bias=False)
              (conv2d_b): Conv2d(1024, 1024, kernel_size=(3, 3), stride=(1, 1), padding=(1, 1), groups=1024, bias=False)
              (out_act_a): Identity()
              (out_act_b): Identity()
              (out_proj_a): Linear(in_features=1024, out_features=512, bias=False)
              (out_proj_b): Linear(in_features=1024, out_features=512, bias=False)
              (dropout): Identity()
            )
            (m_b): SS2D(
              (out_norm): LayerNorm((1024,), eps=1e-05, elementwise_affine=True)
              (in_proj_a): Linear(in_features=512, out_features=1024, bias=False)
              (in_proj_b): Linear(in_features=512, out_features=1024, bias=False)
              (act): SiLU()
              (conv2d_a): Conv2d(1024, 1024, kernel_size=(3, 3), stride=(1, 1), padding=(1, 1), groups=1024, bias=False)
              (conv2d_b): Conv2d(1024, 1024, kernel_size=(3, 3), stride=(1, 1), padding=(1, 1), groups=1024, bias=False)
              (out_act_a): Identity()
              (out_act_b): Identity()
              (out_proj_a): Linear(in_features=1024, out_features=512, bias=False)
              (out_proj_b): Linear(in_features=1024, out_features=512, bias=False)
              (dropout): Identity()
            )
            (drop_path): timm.DropPath(0.15000000596046448)
            (norm2_A): LayerNorm((512,), eps=1e-05, elementwise_affine=True)
            (norm2_B): LayerNorm((512,), eps=1e-05, elementwise_affine=True)
            (mlp_A): Mlp(
              (fc1): Linear(in_features=512, out_features=2048, bias=True)
              (act): GELU(approximate='none')
              (fc2): Linear(in_features=2048, out_features=512, bias=True)
              (drop): Dropout(p=0.0, inplace=False)
            )
            (mlp_B): Mlp(
              (fc1): Linear(in_features=512, out_features=2048, bias=True)
              (act): GELU(approximate='none')
              (fc2): Linear(in_features=2048, out_features=512, bias=True)
              (drop): Dropout(p=0.0, inplace=False)
            )
          )
        )
      )
      (3): Sequential(
        (blocks): Sequential(
          (0): FusionVSSBlock(
            (norm_A): LayerNorm((1024,), eps=1e-05, elementwise_affine=True)
            (norm_B): LayerNorm((1024,), eps=1e-05, elementwise_affine=True)
            (m_a): SS2D(
              (out_norm): LayerNorm((2048,), eps=1e-05, elementwise_affine=True)
              (in_proj_a): Linear(in_features=1024, out_features=2048, bias=False)
              (in_proj_b): Linear(in_features=1024, out_features=2048, bias=False)
              (act): SiLU()
              (conv2d_a): Conv2d(2048, 2048, kernel_size=(3, 3), stride=(1, 1), padding=(1, 1), groups=2048, bias=False)
              (conv2d_b): Conv2d(2048, 2048, kernel_size=(3, 3), stride=(1, 1), padding=(1, 1), groups=2048, bias=False)
              (out_act_a): Identity()
              (out_act_b): Identity()
              (out_proj_a): Linear(in_features=2048, out_features=1024, bias=False)
              (out_proj_b): Linear(in_features=2048, out_features=1024, bias=False)
              (dropout): Identity()
            )
            (m_b): SS2D(
              (out_norm): LayerNorm((2048,), eps=1e-05, elementwise_affine=True)
              (in_proj_a): Linear(in_features=1024, out_features=2048, bias=False)
              (in_proj_b): Linear(in_features=1024, out_features=2048, bias=False)
              (act): SiLU()
              (conv2d_a): Conv2d(2048, 2048, kernel_size=(3, 3), stride=(1, 1), padding=(1, 1), groups=2048, bias=False)
              (conv2d_b): Conv2d(2048, 2048, kernel_size=(3, 3), stride=(1, 1), padding=(1, 1), groups=2048, bias=False)
              (out_act_a): Identity()
              (out_act_b): Identity()
              (out_proj_a): Linear(in_features=2048, out_features=1024, bias=False)
              (out_proj_b): Linear(in_features=2048, out_features=1024, bias=False)
              (dropout): Identity()
            )
            (drop_path): timm.DropPath(0.18000000715255737)
            (norm2_A): LayerNorm((1024,), eps=1e-05, elementwise_affine=True)
            (norm2_B): LayerNorm((1024,), eps=1e-05, elementwise_affine=True)
            (mlp_A): Mlp(
              (fc1): Linear(in_features=1024, out_features=4096, bias=True)
              (act): GELU(approximate='none')
              (fc2): Linear(in_features=4096, out_features=1024, bias=True)
              (drop): Dropout(p=0.0, inplace=False)
            )
            (mlp_B): Mlp(
              (fc1): Linear(in_features=1024, out_features=4096, bias=True)
              (act): GELU(approximate='none')
              (fc2): Linear(in_features=4096, out_features=1024, bias=True)
              (drop): Dropout(p=0.0, inplace=False)
            )
          )
          (1): FusionVSSBlock(
            (norm_A): LayerNorm((1024,), eps=1e-05, elementwise_affine=True)
            (norm_B): LayerNorm((1024,), eps=1e-05, elementwise_affine=True)
            (m_a): SS2D(
              (out_norm): LayerNorm((2048,), eps=1e-05, elementwise_affine=True)
              (in_proj_a): Linear(in_features=1024, out_features=2048, bias=False)
              (in_proj_b): Linear(in_features=1024, out_features=2048, bias=False)
              (act): SiLU()
              (conv2d_a): Conv2d(2048, 2048, kernel_size=(3, 3), stride=(1, 1), padding=(1, 1), groups=2048, bias=False)
              (conv2d_b): Conv2d(2048, 2048, kernel_size=(3, 3), stride=(1, 1), padding=(1, 1), groups=2048, bias=False)
              (out_act_a): Identity()
              (out_act_b): Identity()
              (out_proj_a): Linear(in_features=2048, out_features=1024, bias=False)
              (out_proj_b): Linear(in_features=2048, out_features=1024, bias=False)
              (dropout): Identity()
            )
            (m_b): SS2D(
              (out_norm): LayerNorm((2048,), eps=1e-05, elementwise_affine=True)
              (in_proj_a): Linear(in_features=1024, out_features=2048, bias=False)
              (in_proj_b): Linear(in_features=1024, out_features=2048, bias=False)
              (act): SiLU()
              (conv2d_a): Conv2d(2048, 2048, kernel_size=(3, 3), stride=(1, 1), padding=(1, 1), groups=2048, bias=False)
              (conv2d_b): Conv2d(2048, 2048, kernel_size=(3, 3), stride=(1, 1), padding=(1, 1), groups=2048, bias=False)
              (out_act_a): Identity()
              (out_act_b): Identity()
              (out_proj_a): Linear(in_features=2048, out_features=1024, bias=False)
              (out_proj_b): Linear(in_features=2048, out_features=1024, bias=False)
              (dropout): Identity()
            )
            (drop_path): timm.DropPath(0.21000000834465027)
            (norm2_A): LayerNorm((1024,), eps=1e-05, elementwise_affine=True)
            (norm2_B): LayerNorm((1024,), eps=1e-05, elementwise_affine=True)
            (mlp_A): Mlp(
              (fc1): Linear(in_features=1024, out_features=4096, bias=True)
              (act): GELU(approximate='none')
              (fc2): Linear(in_features=4096, out_features=1024, bias=True)
              (drop): Dropout(p=0.0, inplace=False)
            )
            (mlp_B): Mlp(
              (fc1): Linear(in_features=1024, out_features=4096, bias=True)
              (act): GELU(approximate='none')
              (fc2): Linear(in_features=4096, out_features=1024, bias=True)
              (drop): Dropout(p=0.0, inplace=False)
            )
          )
        )
      )
    )
    (fuse_layersv2): ModuleList(
      (0): Sequential(
        (blocks): Sequential(
          (0): FusionVSSBlockv2(
            (norm_A): LayerNorm((128,), eps=1e-05, elementwise_affine=True)
            (norm_B): LayerNorm((128,), eps=1e-05, elementwise_affine=True)
            (m_a): SS2D(
              (out_norm): LayerNorm((256,), eps=1e-05, elementwise_affine=True)
              (in_proj_a): Linear(in_features=128, out_features=512, bias=False)
              (in_proj_b): Linear(in_features=128, out_features=512, bias=False)
              (act): SiLU()
              (conv2d_a): Conv2d(256, 256, kernel_size=(3, 3), stride=(1, 1), padding=(1, 1), groups=256, bias=False)
              (conv2d_b): Conv2d(256, 256, kernel_size=(3, 3), stride=(1, 1), padding=(1, 1), groups=256, bias=False)
              (out_act_a): Identity()
              (out_act_b): Identity()
              (out_proj_a): Linear(in_features=256, out_features=128, bias=False)
              (out_proj_b): Linear(in_features=256, out_features=128, bias=False)
              (dropout): Identity()
            )
            (m_b): SS2D(
              (out_norm): LayerNorm((256,), eps=1e-05, elementwise_affine=True)
              (in_proj_a): Linear(in_features=128, out_features=512, bias=False)
              (in_proj_b): Linear(in_features=128, out_features=512, bias=False)
              (act): SiLU()
              (conv2d_a): Conv2d(256, 256, kernel_size=(3, 3), stride=(1, 1), padding=(1, 1), groups=256, bias=False)
              (conv2d_b): Conv2d(256, 256, kernel_size=(3, 3), stride=(1, 1), padding=(1, 1), groups=256, bias=False)
              (out_act_a): Identity()
              (out_act_b): Identity()
              (out_proj_a): Linear(in_features=256, out_features=128, bias=False)
              (out_proj_b): Linear(in_features=256, out_features=128, bias=False)
              (dropout): Identity()
            )
            (drop_path): timm.DropPath(0.0)
            (norm2_A): LayerNorm((128,), eps=1e-05, elementwise_affine=True)
            (norm2_B): LayerNorm((128,), eps=1e-05, elementwise_affine=True)
            (mlp_A): Mlp(
              (fc1): Linear(in_features=128, out_features=512, bias=True)
              (act): GELU(approximate='none')
              (fc2): Linear(in_features=512, out_features=128, bias=True)
              (drop): Dropout(p=0.0, inplace=False)
            )
            (mlp_B): Mlp(
              (fc1): Linear(in_features=128, out_features=512, bias=True)
              (act): GELU(approximate='none')
              (fc2): Linear(in_features=512, out_features=128, bias=True)
              (drop): Dropout(p=0.0, inplace=False)
            )
          )
          (1): FusionVSSBlockv2(
            (norm_A): LayerNorm((128,), eps=1e-05, elementwise_affine=True)
            (norm_B): LayerNorm((128,), eps=1e-05, elementwise_affine=True)
            (m_a): SS2D(
              (out_norm): LayerNorm((256,), eps=1e-05, elementwise_affine=True)
              (in_proj_a): Linear(in_features=128, out_features=512, bias=False)
              (in_proj_b): Linear(in_features=128, out_features=512, bias=False)
              (act): SiLU()
              (conv2d_a): Conv2d(256, 256, kernel_size=(3, 3), stride=(1, 1), padding=(1, 1), groups=256, bias=False)
              (conv2d_b): Conv2d(256, 256, kernel_size=(3, 3), stride=(1, 1), padding=(1, 1), groups=256, bias=False)
              (out_act_a): Identity()
              (out_act_b): Identity()
              (out_proj_a): Linear(in_features=256, out_features=128, bias=False)
              (out_proj_b): Linear(in_features=256, out_features=128, bias=False)
              (dropout): Identity()
            )
            (m_b): SS2D(
              (out_norm): LayerNorm((256,), eps=1e-05, elementwise_affine=True)
              (in_proj_a): Linear(in_features=128, out_features=512, bias=False)
              (in_proj_b): Linear(in_features=128, out_features=512, bias=False)
              (act): SiLU()
              (conv2d_a): Conv2d(256, 256, kernel_size=(3, 3), stride=(1, 1), padding=(1, 1), groups=256, bias=False)
              (conv2d_b): Conv2d(256, 256, kernel_size=(3, 3), stride=(1, 1), padding=(1, 1), groups=256, bias=False)
              (out_act_a): Identity()
              (out_act_b): Identity()
              (out_proj_a): Linear(in_features=256, out_features=128, bias=False)
              (out_proj_b): Linear(in_features=256, out_features=128, bias=False)
              (dropout): Identity()
            )
            (drop_path): timm.DropPath(0.030000001192092896)
            (norm2_A): LayerNorm((128,), eps=1e-05, elementwise_affine=True)
            (norm2_B): LayerNorm((128,), eps=1e-05, elementwise_affine=True)
            (mlp_A): Mlp(
              (fc1): Linear(in_features=128, out_features=512, bias=True)
              (act): GELU(approximate='none')
              (fc2): Linear(in_features=512, out_features=128, bias=True)
              (drop): Dropout(p=0.0, inplace=False)
            )
            (mlp_B): Mlp(
              (fc1): Linear(in_features=128, out_features=512, bias=True)
              (act): GELU(approximate='none')
              (fc2): Linear(in_features=512, out_features=128, bias=True)
              (drop): Dropout(p=0.0, inplace=False)
            )
          )
        )
      )
      (1): Sequential(
        (blocks): Sequential(
          (0): FusionVSSBlockv2(
            (norm_A): LayerNorm((256,), eps=1e-05, elementwise_affine=True)
            (norm_B): LayerNorm((256,), eps=1e-05, elementwise_affine=True)
            (m_a): SS2D(
              (out_norm): LayerNorm((512,), eps=1e-05, elementwise_affine=True)
              (in_proj_a): Linear(in_features=256, out_features=1024, bias=False)
              (in_proj_b): Linear(in_features=256, out_features=1024, bias=False)
              (act): SiLU()
              (conv2d_a): Conv2d(512, 512, kernel_size=(3, 3), stride=(1, 1), padding=(1, 1), groups=512, bias=False)
              (conv2d_b): Conv2d(512, 512, kernel_size=(3, 3), stride=(1, 1), padding=(1, 1), groups=512, bias=False)
              (out_act_a): Identity()
              (out_act_b): Identity()
              (out_proj_a): Linear(in_features=512, out_features=256, bias=False)
              (out_proj_b): Linear(in_features=512, out_features=256, bias=False)
              (dropout): Identity()
            )
            (m_b): SS2D(
              (out_norm): LayerNorm((512,), eps=1e-05, elementwise_affine=True)
              (in_proj_a): Linear(in_features=256, out_features=1024, bias=False)
              (in_proj_b): Linear(in_features=256, out_features=1024, bias=False)
              (act): SiLU()
              (conv2d_a): Conv2d(512, 512, kernel_size=(3, 3), stride=(1, 1), padding=(1, 1), groups=512, bias=False)
              (conv2d_b): Conv2d(512, 512, kernel_size=(3, 3), stride=(1, 1), padding=(1, 1), groups=512, bias=False)
              (out_act_a): Identity()
              (out_act_b): Identity()
              (out_proj_a): Linear(in_features=512, out_features=256, bias=False)
              (out_proj_b): Linear(in_features=512, out_features=256, bias=False)
              (dropout): Identity()
            )
            (drop_path): timm.DropPath(0.06000000238418579)
            (norm2_A): LayerNorm((256,), eps=1e-05, elementwise_affine=True)
            (norm2_B): LayerNorm((256,), eps=1e-05, elementwise_affine=True)
            (mlp_A): Mlp(
              (fc1): Linear(in_features=256, out_features=1024, bias=True)
              (act): GELU(approximate='none')
              (fc2): Linear(in_features=1024, out_features=256, bias=True)
              (drop): Dropout(p=0.0, inplace=False)
            )
            (mlp_B): Mlp(
              (fc1): Linear(in_features=256, out_features=1024, bias=True)
              (act): GELU(approximate='none')
              (fc2): Linear(in_features=1024, out_features=256, bias=True)
              (drop): Dropout(p=0.0, inplace=False)
            )
          )
          (1): FusionVSSBlockv2(
            (norm_A): LayerNorm((256,), eps=1e-05, elementwise_affine=True)
            (norm_B): LayerNorm((256,), eps=1e-05, elementwise_affine=True)
            (m_a): SS2D(
              (out_norm): LayerNorm((512,), eps=1e-05, elementwise_affine=True)
              (in_proj_a): Linear(in_features=256, out_features=1024, bias=False)
              (in_proj_b): Linear(in_features=256, out_features=1024, bias=False)
              (act): SiLU()
              (conv2d_a): Conv2d(512, 512, kernel_size=(3, 3), stride=(1, 1), padding=(1, 1), groups=512, bias=False)
              (conv2d_b): Conv2d(512, 512, kernel_size=(3, 3), stride=(1, 1), padding=(1, 1), groups=512, bias=False)
              (out_act_a): Identity()
              (out_act_b): Identity()
              (out_proj_a): Linear(in_features=512, out_features=256, bias=False)
              (out_proj_b): Linear(in_features=512, out_features=256, bias=False)
              (dropout): Identity()
            )
            (m_b): SS2D(
              (out_norm): LayerNorm((512,), eps=1e-05, elementwise_affine=True)
              (in_proj_a): Linear(in_features=256, out_features=1024, bias=False)
              (in_proj_b): Linear(in_features=256, out_features=1024, bias=False)
              (act): SiLU()
              (conv2d_a): Conv2d(512, 512, kernel_size=(3, 3), stride=(1, 1), padding=(1, 1), groups=512, bias=False)
              (conv2d_b): Conv2d(512, 512, kernel_size=(3, 3), stride=(1, 1), padding=(1, 1), groups=512, bias=False)
              (out_act_a): Identity()
              (out_act_b): Identity()
              (out_proj_a): Linear(in_features=512, out_features=256, bias=False)
              (out_proj_b): Linear(in_features=512, out_features=256, bias=False)
              (dropout): Identity()
            )
            (drop_path): timm.DropPath(0.09000000357627869)
            (norm2_A): LayerNorm((256,), eps=1e-05, elementwise_affine=True)
            (norm2_B): LayerNorm((256,), eps=1e-05, elementwise_affine=True)
            (mlp_A): Mlp(
              (fc1): Linear(in_features=256, out_features=1024, bias=True)
              (act): GELU(approximate='none')
              (fc2): Linear(in_features=1024, out_features=256, bias=True)
              (drop): Dropout(p=0.0, inplace=False)
            )
            (mlp_B): Mlp(
              (fc1): Linear(in_features=256, out_features=1024, bias=True)
              (act): GELU(approximate='none')
              (fc2): Linear(in_features=1024, out_features=256, bias=True)
              (drop): Dropout(p=0.0, inplace=False)
            )
          )
        )
      )
      (2): Sequential(
        (blocks): Sequential(
          (0): FusionVSSBlockv2(
            (norm_A): LayerNorm((512,), eps=1e-05, elementwise_affine=True)
            (norm_B): LayerNorm((512,), eps=1e-05, elementwise_affine=True)
            (m_a): SS2D(
              (out_norm): LayerNorm((1024,), eps=1e-05, elementwise_affine=True)
              (in_proj_a): Linear(in_features=512, out_features=2048, bias=False)
              (in_proj_b): Linear(in_features=512, out_features=2048, bias=False)
              (act): SiLU()
              (conv2d_a): Conv2d(1024, 1024, kernel_size=(3, 3), stride=(1, 1), padding=(1, 1), groups=1024, bias=False)
              (conv2d_b): Conv2d(1024, 1024, kernel_size=(3, 3), stride=(1, 1), padding=(1, 1), groups=1024, bias=False)
              (out_act_a): Identity()
              (out_act_b): Identity()
              (out_proj_a): Linear(in_features=1024, out_features=512, bias=False)
              (out_proj_b): Linear(in_features=1024, out_features=512, bias=False)
              (dropout): Identity()
            )
            (m_b): SS2D(
              (out_norm): LayerNorm((1024,), eps=1e-05, elementwise_affine=True)
              (in_proj_a): Linear(in_features=512, out_features=2048, bias=False)
              (in_proj_b): Linear(in_features=512, out_features=2048, bias=False)
              (act): SiLU()
              (conv2d_a): Conv2d(1024, 1024, kernel_size=(3, 3), stride=(1, 1), padding=(1, 1), groups=1024, bias=False)
              (conv2d_b): Conv2d(1024, 1024, kernel_size=(3, 3), stride=(1, 1), padding=(1, 1), groups=1024, bias=False)
              (out_act_a): Identity()
              (out_act_b): Identity()
              (out_proj_a): Linear(in_features=1024, out_features=512, bias=False)
              (out_proj_b): Linear(in_features=1024, out_features=512, bias=False)
              (dropout): Identity()
            )
            (drop_path): timm.DropPath(0.12000000476837158)
            (norm2_A): LayerNorm((512,), eps=1e-05, elementwise_affine=True)
            (norm2_B): LayerNorm((512,), eps=1e-05, elementwise_affine=True)
            (mlp_A): Mlp(
              (fc1): Linear(in_features=512, out_features=2048, bias=True)
              (act): GELU(approximate='none')
              (fc2): Linear(in_features=2048, out_features=512, bias=True)
              (drop): Dropout(p=0.0, inplace=False)
            )
            (mlp_B): Mlp(
              (fc1): Linear(in_features=512, out_features=2048, bias=True)
              (act): GELU(approximate='none')
              (fc2): Linear(in_features=2048, out_features=512, bias=True)
              (drop): Dropout(p=0.0, inplace=False)
            )
          )
          (1): FusionVSSBlockv2(
            (norm_A): LayerNorm((512,), eps=1e-05, elementwise_affine=True)
            (norm_B): LayerNorm((512,), eps=1e-05, elementwise_affine=True)
            (m_a): SS2D(
              (out_norm): LayerNorm((1024,), eps=1e-05, elementwise_affine=True)
              (in_proj_a): Linear(in_features=512, out_features=2048, bias=False)
              (in_proj_b): Linear(in_features=512, out_features=2048, bias=False)
              (act): SiLU()
              (conv2d_a): Conv2d(1024, 1024, kernel_size=(3, 3), stride=(1, 1), padding=(1, 1), groups=1024, bias=False)
              (conv2d_b): Conv2d(1024, 1024, kernel_size=(3, 3), stride=(1, 1), padding=(1, 1), groups=1024, bias=False)
              (out_act_a): Identity()
              (out_act_b): Identity()
              (out_proj_a): Linear(in_features=1024, out_features=512, bias=False)
              (out_proj_b): Linear(in_features=1024, out_features=512, bias=False)
              (dropout): Identity()
            )
            (m_b): SS2D(
              (out_norm): LayerNorm((1024,), eps=1e-05, elementwise_affine=True)
              (in_proj_a): Linear(in_features=512, out_features=2048, bias=False)
              (in_proj_b): Linear(in_features=512, out_features=2048, bias=False)
              (act): SiLU()
              (conv2d_a): Conv2d(1024, 1024, kernel_size=(3, 3), stride=(1, 1), padding=(1, 1), groups=1024, bias=False)
              (conv2d_b): Conv2d(1024, 1024, kernel_size=(3, 3), stride=(1, 1), padding=(1, 1), groups=1024, bias=False)
              (out_act_a): Identity()
              (out_act_b): Identity()
              (out_proj_a): Linear(in_features=1024, out_features=512, bias=False)
              (out_proj_b): Linear(in_features=1024, out_features=512, bias=False)
              (dropout): Identity()
            )
            (drop_path): timm.DropPath(0.15000000596046448)
            (norm2_A): LayerNorm((512,), eps=1e-05, elementwise_affine=True)
            (norm2_B): LayerNorm((512,), eps=1e-05, elementwise_affine=True)
            (mlp_A): Mlp(
              (fc1): Linear(in_features=512, out_features=2048, bias=True)
              (act): GELU(approximate='none')
              (fc2): Linear(in_features=2048, out_features=512, bias=True)
              (drop): Dropout(p=0.0, inplace=False)
            )
            (mlp_B): Mlp(
              (fc1): Linear(in_features=512, out_features=2048, bias=True)
              (act): GELU(approximate='none')
              (fc2): Linear(in_features=2048, out_features=512, bias=True)
              (drop): Dropout(p=0.0, inplace=False)
            )
          )
          (2): FusionVSSBlockv2(
            (norm_A): LayerNorm((512,), eps=1e-05, elementwise_affine=True)
            (norm_B): LayerNorm((512,), eps=1e-05, elementwise_affine=True)
            (m_a): SS2D(
              (out_norm): LayerNorm((1024,), eps=1e-05, elementwise_affine=True)
              (in_proj_a): Linear(in_features=512, out_features=2048, bias=False)
              (in_proj_b): Linear(in_features=512, out_features=2048, bias=False)
              (act): SiLU()
              (conv2d_a): Conv2d(1024, 1024, kernel_size=(3, 3), stride=(1, 1), padding=(1, 1), groups=1024, bias=False)
              (conv2d_b): Conv2d(1024, 1024, kernel_size=(3, 3), stride=(1, 1), padding=(1, 1), groups=1024, bias=False)
              (out_act_a): Identity()
              (out_act_b): Identity()
              (out_proj_a): Linear(in_features=1024, out_features=512, bias=False)
              (out_proj_b): Linear(in_features=1024, out_features=512, bias=False)
              (dropout): Identity()
            )
            (m_b): SS2D(
              (out_norm): LayerNorm((1024,), eps=1e-05, elementwise_affine=True)
              (in_proj_a): Linear(in_features=512, out_features=2048, bias=False)
              (in_proj_b): Linear(in_features=512, out_features=2048, bias=False)
              (act): SiLU()
              (conv2d_a): Conv2d(1024, 1024, kernel_size=(3, 3), stride=(1, 1), padding=(1, 1), groups=1024, bias=False)
              (conv2d_b): Conv2d(1024, 1024, kernel_size=(3, 3), stride=(1, 1), padding=(1, 1), groups=1024, bias=False)
              (out_act_a): Identity()
              (out_act_b): Identity()
              (out_proj_a): Linear(in_features=1024, out_features=512, bias=False)
              (out_proj_b): Linear(in_features=1024, out_features=512, bias=False)
              (dropout): Identity()
            )
            (drop_path): timm.DropPath(0.18000000715255737)
            (norm2_A): LayerNorm((512,), eps=1e-05, elementwise_affine=True)
            (norm2_B): LayerNorm((512,), eps=1e-05, elementwise_affine=True)
            (mlp_A): Mlp(
              (fc1): Linear(in_features=512, out_features=2048, bias=True)
              (act): GELU(approximate='none')
              (fc2): Linear(in_features=2048, out_features=512, bias=True)
              (drop): Dropout(p=0.0, inplace=False)
            )
            (mlp_B): Mlp(
              (fc1): Linear(in_features=512, out_features=2048, bias=True)
              (act): GELU(approximate='none')
              (fc2): Linear(in_features=2048, out_features=512, bias=True)
              (drop): Dropout(p=0.0, inplace=False)
            )
          )
          (3): FusionVSSBlockv2(
            (norm_A): LayerNorm((512,), eps=1e-05, elementwise_affine=True)
            (norm_B): LayerNorm((512,), eps=1e-05, elementwise_affine=True)
            (m_a): SS2D(
              (out_norm): LayerNorm((1024,), eps=1e-05, elementwise_affine=True)
              (in_proj_a): Linear(in_features=512, out_features=2048, bias=False)
              (in_proj_b): Linear(in_features=512, out_features=2048, bias=False)
              (act): SiLU()
              (conv2d_a): Conv2d(1024, 1024, kernel_size=(3, 3), stride=(1, 1), padding=(1, 1), groups=1024, bias=False)
              (conv2d_b): Conv2d(1024, 1024, kernel_size=(3, 3), stride=(1, 1), padding=(1, 1), groups=1024, bias=False)
              (out_act_a): Identity()
              (out_act_b): Identity()
              (out_proj_a): Linear(in_features=1024, out_features=512, bias=False)
              (out_proj_b): Linear(in_features=1024, out_features=512, bias=False)
              (dropout): Identity()
            )
            (m_b): SS2D(
              (out_norm): LayerNorm((1024,), eps=1e-05, elementwise_affine=True)
              (in_proj_a): Linear(in_features=512, out_features=2048, bias=False)
              (in_proj_b): Linear(in_features=512, out_features=2048, bias=False)
              (act): SiLU()
              (conv2d_a): Conv2d(1024, 1024, kernel_size=(3, 3), stride=(1, 1), padding=(1, 1), groups=1024, bias=False)
              (conv2d_b): Conv2d(1024, 1024, kernel_size=(3, 3), stride=(1, 1), padding=(1, 1), groups=1024, bias=False)
              (out_act_a): Identity()
              (out_act_b): Identity()
              (out_proj_a): Linear(in_features=1024, out_features=512, bias=False)
              (out_proj_b): Linear(in_features=1024, out_features=512, bias=False)
              (dropout): Identity()
            )
            (drop_path): timm.DropPath(0.21000000834465027)
            (norm2_A): LayerNorm((512,), eps=1e-05, elementwise_affine=True)
            (norm2_B): LayerNorm((512,), eps=1e-05, elementwise_affine=True)
            (mlp_A): Mlp(
              (fc1): Linear(in_features=512, out_features=2048, bias=True)
              (act): GELU(approximate='none')
              (fc2): Linear(in_features=2048, out_features=512, bias=True)
              (drop): Dropout(p=0.0, inplace=False)
            )
            (mlp_B): Mlp(
              (fc1): Linear(in_features=512, out_features=2048, bias=True)
              (act): GELU(approximate='none')
              (fc2): Linear(in_features=2048, out_features=512, bias=True)
              (drop): Dropout(p=0.0, inplace=False)
            )
          )
        )
      )
      (3): Sequential(
        (blocks): Sequential(
          (0): FusionVSSBlockv2(
            (norm_A): LayerNorm((1024,), eps=1e-05, elementwise_affine=True)
            (norm_B): LayerNorm((1024,), eps=1e-05, elementwise_affine=True)
            (m_a): SS2D(
              (out_norm): LayerNorm((2048,), eps=1e-05, elementwise_affine=True)
              (in_proj_a): Linear(in_features=1024, out_features=4096, bias=False)
              (in_proj_b): Linear(in_features=1024, out_features=4096, bias=False)
              (act): SiLU()
              (conv2d_a): Conv2d(2048, 2048, kernel_size=(3, 3), stride=(1, 1), padding=(1, 1), groups=2048, bias=False)
              (conv2d_b): Conv2d(2048, 2048, kernel_size=(3, 3), stride=(1, 1), padding=(1, 1), groups=2048, bias=False)
              (out_act_a): Identity()
              (out_act_b): Identity()
              (out_proj_a): Linear(in_features=2048, out_features=1024, bias=False)
              (out_proj_b): Linear(in_features=2048, out_features=1024, bias=False)
              (dropout): Identity()
            )
            (m_b): SS2D(
              (out_norm): LayerNorm((2048,), eps=1e-05, elementwise_affine=True)
              (in_proj_a): Linear(in_features=1024, out_features=4096, bias=False)
              (in_proj_b): Linear(in_features=1024, out_features=4096, bias=False)
              (act): SiLU()
              (conv2d_a): Conv2d(2048, 2048, kernel_size=(3, 3), stride=(1, 1), padding=(1, 1), groups=2048, bias=False)
              (conv2d_b): Conv2d(2048, 2048, kernel_size=(3, 3), stride=(1, 1), padding=(1, 1), groups=2048, bias=False)
              (out_act_a): Identity()
              (out_act_b): Identity()
              (out_proj_a): Linear(in_features=2048, out_features=1024, bias=False)
              (out_proj_b): Linear(in_features=2048, out_features=1024, bias=False)
              (dropout): Identity()
            )
            (drop_path): timm.DropPath(0.24000000953674316)
            (norm2_A): LayerNorm((1024,), eps=1e-05, elementwise_affine=True)
            (norm2_B): LayerNorm((1024,), eps=1e-05, elementwise_affine=True)
            (mlp_A): Mlp(
              (fc1): Linear(in_features=1024, out_features=4096, bias=True)
              (act): GELU(approximate='none')
              (fc2): Linear(in_features=4096, out_features=1024, bias=True)
              (drop): Dropout(p=0.0, inplace=False)
            )
            (mlp_B): Mlp(
              (fc1): Linear(in_features=1024, out_features=4096, bias=True)
              (act): GELU(approximate='none')
              (fc2): Linear(in_features=4096, out_features=1024, bias=True)
              (drop): Dropout(p=0.0, inplace=False)
            )
          )
          (1): FusionVSSBlockv2(
            (norm_A): LayerNorm((1024,), eps=1e-05, elementwise_affine=True)
            (norm_B): LayerNorm((1024,), eps=1e-05, elementwise_affine=True)
            (m_a): SS2D(
              (out_norm): LayerNorm((2048,), eps=1e-05, elementwise_affine=True)
              (in_proj_a): Linear(in_features=1024, out_features=4096, bias=False)
              (in_proj_b): Linear(in_features=1024, out_features=4096, bias=False)
              (act): SiLU()
              (conv2d_a): Conv2d(2048, 2048, kernel_size=(3, 3), stride=(1, 1), padding=(1, 1), groups=2048, bias=False)
              (conv2d_b): Conv2d(2048, 2048, kernel_size=(3, 3), stride=(1, 1), padding=(1, 1), groups=2048, bias=False)
              (out_act_a): Identity()
              (out_act_b): Identity()
              (out_proj_a): Linear(in_features=2048, out_features=1024, bias=False)
              (out_proj_b): Linear(in_features=2048, out_features=1024, bias=False)
              (dropout): Identity()
            )
            (m_b): SS2D(
              (out_norm): LayerNorm((2048,), eps=1e-05, elementwise_affine=True)
              (in_proj_a): Linear(in_features=1024, out_features=4096, bias=False)
              (in_proj_b): Linear(in_features=1024, out_features=4096, bias=False)
              (act): SiLU()
              (conv2d_a): Conv2d(2048, 2048, kernel_size=(3, 3), stride=(1, 1), padding=(1, 1), groups=2048, bias=False)
              (conv2d_b): Conv2d(2048, 2048, kernel_size=(3, 3), stride=(1, 1), padding=(1, 1), groups=2048, bias=False)
              (out_act_a): Identity()
              (out_act_b): Identity()
              (out_proj_a): Linear(in_features=2048, out_features=1024, bias=False)
              (out_proj_b): Linear(in_features=2048, out_features=1024, bias=False)
              (dropout): Identity()
            )
            (drop_path): timm.DropPath(0.27000001072883606)
            (norm2_A): LayerNorm((1024,), eps=1e-05, elementwise_affine=True)
            (norm2_B): LayerNorm((1024,), eps=1e-05, elementwise_affine=True)
            (mlp_A): Mlp(
              (fc1): Linear(in_features=1024, out_features=4096, bias=True)
              (act): GELU(approximate='none')
              (fc2): Linear(in_features=4096, out_features=1024, bias=True)
              (drop): Dropout(p=0.0, inplace=False)
            )
            (mlp_B): Mlp(
              (fc1): Linear(in_features=1024, out_features=4096, bias=True)
              (act): GELU(approximate='none')
              (fc2): Linear(in_features=4096, out_features=1024, bias=True)
              (drop): Dropout(p=0.0, inplace=False)
            )
          )
        )
      )
    )
    (classifier): Sequential(
      (norm): LayerNorm((1024,), eps=1e-05, elementwise_affine=True)
      (permute): Permute()
      (avgpool): AdaptiveAvgPool2d(output_size=1)
      (flatten): Flatten(start_dim=1, end_dim=-1)
      (head): Linear(in_features=1024, out_features=7, bias=True)
    )
    (outnorm_a0): LayerNorm((128,), eps=1e-05, elementwise_affine=True)
    (outnorm_b0): LayerNorm((128,), eps=1e-05, elementwise_affine=True)
    (outnorm_a1): LayerNorm((256,), eps=1e-05, elementwise_affine=True)
    (outnorm_b1): LayerNorm((256,), eps=1e-05, elementwise_affine=True)
    (outnorm_a2): LayerNorm((512,), eps=1e-05, elementwise_affine=True)
    (outnorm_b2): LayerNorm((512,), eps=1e-05, elementwise_affine=True)
    (outnorm_a3): LayerNorm((1024,), eps=1e-05, elementwise_affine=True)
    (outnorm_b3): LayerNorm((1024,), eps=1e-05, elementwise_affine=True)
  )
  (neck): Sequential(
    (0): FPN(
      (lateral_convs): ModuleList(
        (0): ConvModule(
          (conv): Conv2d(128, 256, kernel_size=(1, 1), stride=(1, 1), bias=False)
          (gn): GroupNorm(32, 256, eps=1e-05, affine=True)
        )
        (1): ConvModule(
          (conv): Conv2d(256, 256, kernel_size=(1, 1), stride=(1, 1), bias=False)
          (gn): GroupNorm(32, 256, eps=1e-05, affine=True)
        )
        (2): ConvModule(
          (conv): Conv2d(512, 256, kernel_size=(1, 1), stride=(1, 1), bias=False)
          (gn): GroupNorm(32, 256, eps=1e-05, affine=True)
        )
        (3): ConvModule(
          (conv): Conv2d(1024, 256, kernel_size=(1, 1), stride=(1, 1), bias=False)
          (gn): GroupNorm(32, 256, eps=1e-05, affine=True)
        )
      )
      (fpn_convs): ModuleList(
        (0): ConvModule(
          (conv): Conv2d(256, 256, kernel_size=(3, 3), stride=(1, 1), padding=(1, 1), bias=False)
          (gn): GroupNorm(32, 256, eps=1e-05, affine=True)
        )
        (1): ConvModule(
          (conv): Conv2d(256, 256, kernel_size=(3, 3), stride=(1, 1), padding=(1, 1), bias=False)
          (gn): GroupNorm(32, 256, eps=1e-05, affine=True)
        )
        (2): ConvModule(
          (conv): Conv2d(256, 256, kernel_size=(3, 3), stride=(1, 1), padding=(1, 1), bias=False)
          (gn): GroupNorm(32, 256, eps=1e-05, affine=True)
        )
        (3): ConvModule(
          (conv): Conv2d(256, 256, kernel_size=(3, 3), stride=(1, 1), padding=(1, 1), bias=False)
          (gn): GroupNorm(32, 256, eps=1e-05, affine=True)
        )
      )
    )
    init_cfg={'type': 'Xavier', 'layer': 'Conv2d', 'distribution': 'uniform'}
    (1): MultiStageMerging(
      (down): ConvModule(
        (conv): Conv2d(1024, 256, kernel_size=(1, 1), stride=(1, 1), bias=False)
        (gn): GroupNorm(32, 256, eps=1e-05, affine=True)
      )
    )
    init_cfg={'type': 'Xavier', 'layer': 'Conv2d', 'distribution': 'uniform'}
  )
  (decode_head): DeformableHeadWithTime(
    input_transform=multiple_select, ignore_index=255, align_corners=False
    (loss_decode): CrossEntropyLoss(avg_non_ignore=False)
    (conv_seg): Conv2d(256, 7, kernel_size=(1, 1), stride=(1, 1))
    (encoder): DetrTransformerEncoder(
      (layers): ModuleList(
        (0): BaseTransformerLayer(
          (attentions): ModuleList(
            (0): MultiScaleDeformableAttention(
              (dropout): Dropout(p=0.0, inplace=False)
              (sampling_offsets): Linear(in_features=256, out_features=64, bias=True)
              (attention_weights): Linear(in_features=256, out_features=32, bias=True)
              (value_proj): Linear(in_features=256, out_features=256, bias=True)
              (output_proj): Linear(in_features=256, out_features=256, bias=True)
            )
          )
          (time_mlp): Sequential(
            (0): SiLU()
            (1): Linear(in_features=1024, out_features=512, bias=True)
          )
          (ffns): ModuleList(
            (0): FFN(
              (activate): GELU(approximate='none')
              (layers): Sequential(
                (0): Sequential(
                  (0): Linear(in_features=256, out_features=1024, bias=True)
                  (1): GELU(approximate='none')
                  (2): Dropout(p=0.0, inplace=False)
                )
                (1): Linear(in_features=1024, out_features=256, bias=True)
                (2): Dropout(p=0.0, inplace=False)
              )
              (dropout_layer): Identity()
            )
          )
          (norms): ModuleList(
            (0): LayerNorm((256,), eps=1e-05, elementwise_affine=True)
            (1): LayerNorm((256,), eps=1e-05, elementwise_affine=True)
          )
        )
        (1): BaseTransformerLayer(
          (attentions): ModuleList(
            (0): MultiScaleDeformableAttention(
              (dropout): Dropout(p=0.0, inplace=False)
              (sampling_offsets): Linear(in_features=256, out_features=64, bias=True)
              (attention_weights): Linear(in_features=256, out_features=32, bias=True)
              (value_proj): Linear(in_features=256, out_features=256, bias=True)
              (output_proj): Linear(in_features=256, out_features=256, bias=True)
            )
          )
          (time_mlp): Sequential(
            (0): SiLU()
            (1): Linear(in_features=1024, out_features=512, bias=True)
          )
          (ffns): ModuleList(
            (0): FFN(
              (activate): GELU(approximate='none')
              (layers): Sequential(
                (0): Sequential(
                  (0): Linear(in_features=256, out_features=1024, bias=True)
                  (1): GELU(approximate='none')
                  (2): Dropout(p=0.0, inplace=False)
                )
                (1): Linear(in_features=1024, out_features=256, bias=True)
                (2): Dropout(p=0.0, inplace=False)
              )
              (dropout_layer): Identity()
            )
          )
          (norms): ModuleList(
            (0): LayerNorm((256,), eps=1e-05, elementwise_affine=True)
            (1): LayerNorm((256,), eps=1e-05, elementwise_affine=True)
          )
        )
        (2): BaseTransformerLayer(
          (attentions): ModuleList(
            (0): MultiScaleDeformableAttention(
              (dropout): Dropout(p=0.0, inplace=False)
              (sampling_offsets): Linear(in_features=256, out_features=64, bias=True)
              (attention_weights): Linear(in_features=256, out_features=32, bias=True)
              (value_proj): Linear(in_features=256, out_features=256, bias=True)
              (output_proj): Linear(in_features=256, out_features=256, bias=True)
            )
          )
          (time_mlp): Sequential(
            (0): SiLU()
            (1): Linear(in_features=1024, out_features=512, bias=True)
          )
          (ffns): ModuleList(
            (0): FFN(
              (activate): GELU(approximate='none')
              (layers): Sequential(
                (0): Sequential(
                  (0): Linear(in_features=256, out_features=1024, bias=True)
                  (1): GELU(approximate='none')
                  (2): Dropout(p=0.0, inplace=False)
                )
                (1): Linear(in_features=1024, out_features=256, bias=True)
                (2): Dropout(p=0.0, inplace=False)
              )
              (dropout_layer): Identity()
            )
          )
          (norms): ModuleList(
            (0): LayerNorm((256,), eps=1e-05, elementwise_affine=True)
            (1): LayerNorm((256,), eps=1e-05, elementwise_affine=True)
          )
        )
        (3): BaseTransformerLayer(
          (attentions): ModuleList(
            (0): MultiScaleDeformableAttention(
              (dropout): Dropout(p=0.0, inplace=False)
              (sampling_offsets): Linear(in_features=256, out_features=64, bias=True)
              (attention_weights): Linear(in_features=256, out_features=32, bias=True)
              (value_proj): Linear(in_features=256, out_features=256, bias=True)
              (output_proj): Linear(in_features=256, out_features=256, bias=True)
            )
          )
          (time_mlp): Sequential(
            (0): SiLU()
            (1): Linear(in_features=1024, out_features=512, bias=True)
          )
          (ffns): ModuleList(
            (0): FFN(
              (activate): GELU(approximate='none')
              (layers): Sequential(
                (0): Sequential(
                  (0): Linear(in_features=256, out_features=1024, bias=True)
                  (1): GELU(approximate='none')
                  (2): Dropout(p=0.0, inplace=False)
                )
                (1): Linear(in_features=1024, out_features=256, bias=True)
                (2): Dropout(p=0.0, inplace=False)
              )
              (dropout_layer): Identity()
            )
          )
          (norms): ModuleList(
            (0): LayerNorm((256,), eps=1e-05, elementwise_affine=True)
            (1): LayerNorm((256,), eps=1e-05, elementwise_affine=True)
          )
        )
        (4): BaseTransformerLayer(
          (attentions): ModuleList(
            (0): MultiScaleDeformableAttention(
              (dropout): Dropout(p=0.0, inplace=False)
              (sampling_offsets): Linear(in_features=256, out_features=64, bias=True)
              (attention_weights): Linear(in_features=256, out_features=32, bias=True)
              (value_proj): Linear(in_features=256, out_features=256, bias=True)
              (output_proj): Linear(in_features=256, out_features=256, bias=True)
            )
          )
          (time_mlp): Sequential(
            (0): SiLU()
            (1): Linear(in_features=1024, out_features=512, bias=True)
          )
          (ffns): ModuleList(
            (0): FFN(
              (activate): GELU(approximate='none')
              (layers): Sequential(
                (0): Sequential(
                  (0): Linear(in_features=256, out_features=1024, bias=True)
                  (1): GELU(approximate='none')
                  (2): Dropout(p=0.0, inplace=False)
                )
                (1): Linear(in_features=1024, out_features=256, bias=True)
                (2): Dropout(p=0.0, inplace=False)
              )
              (dropout_layer): Identity()
            )
          )
          (norms): ModuleList(
            (0): LayerNorm((256,), eps=1e-05, elementwise_affine=True)
            (1): LayerNorm((256,), eps=1e-05, elementwise_affine=True)
          )
        )
        (5): BaseTransformerLayer(
          (attentions): ModuleList(
            (0): MultiScaleDeformableAttention(
              (dropout): Dropout(p=0.0, inplace=False)
              (sampling_offsets): Linear(in_features=256, out_features=64, bias=True)
              (attention_weights): Linear(in_features=256, out_features=32, bias=True)
              (value_proj): Linear(in_features=256, out_features=256, bias=True)
              (output_proj): Linear(in_features=256, out_features=256, bias=True)
            )
          )
          (time_mlp): Sequential(
            (0): SiLU()
            (1): Linear(in_features=1024, out_features=512, bias=True)
          )
          (ffns): ModuleList(
            (0): FFN(
              (activate): GELU(approximate='none')
              (layers): Sequential(
                (0): Sequential(
                  (0): Linear(in_features=256, out_features=1024, bias=True)
                  (1): GELU(approximate='none')
                  (2): Dropout(p=0.0, inplace=False)
                )
                (1): Linear(in_features=1024, out_features=256, bias=True)
                (2): Dropout(p=0.0, inplace=False)
              )
              (dropout_layer): Identity()
            )
          )
          (norms): ModuleList(
            (0): LayerNorm((256,), eps=1e-05, elementwise_affine=True)
            (1): LayerNorm((256,), eps=1e-05, elementwise_affine=True)
          )
        )
      )
    )
    (positional_encoding): SinePositionalEncoding(num_feats=128, temperature=10000, normalize=True, scale=6.283185307179586, eps=1e-06)
  )
  init_cfg={'type': 'Normal', 'std': 0.01, 'override': {'name': 'conv_seg'}}
  (auxiliary_head): FCNHead(
    input_transform=None, ignore_index=255, align_corners=False
    (loss_decode): CrossEntropyLoss(avg_non_ignore=False)
    (conv_seg): Conv2d(256, 7, kernel_size=(1, 1), stride=(1, 1))
    (dropout): Dropout2d(p=0.1, inplace=False)
    (convs): Sequential(
      (0): ConvModule(
        (conv): Conv2d(256, 256, kernel_size=(3, 3), stride=(1, 1), padding=(1, 1), bias=False)
        (bn): BatchNorm2d(256, eps=1e-05, momentum=0.1, affine=True, track_running_stats=True)
        (activate): ReLU(inplace=True)
      )
    )
  )
  init_cfg={'type': 'Normal', 'std': 0.01, 'override': {'name': 'conv_seg'}}
  (embedding_table): Embedding(8, 256)
  (transform): ConvModule(
    (conv): Conv2d(512, 256, kernel_size=(1, 1), stride=(1, 1))
  )
  (time_mlp): Sequential(
    (0): LearnedSinusoidalPosEmb()
    (1): Linear(in_features=17, out_features=1024, bias=True)
    (2): GELU(approximate='none')
    (3): Linear(in_features=1024, out_features=1024, bias=True)
  )
)
2024-06-04 11:01:26,720 - mmseg - INFO - Model size:1595.19
2024-06-04 11:01:26,938 - mmseg - INFO - Loaded 20580 images
2024-06-04 11:01:30,569 - mmseg - INFO - Loaded 5880 images
2024-06-04 11:01:30,570 - mmseg - INFO - Start running, host: user1@user1-NF5568M4, work_dir: /home/user1/student/guyang/ddp/work_dirs/ddp_fuse-vssm_b_4x4_256x256_160k_whu_cat_fuma-o_final
…
